implementations/dcgan/models/discriminator_model_1.pth (torch, 434615 bytes, 21 tensors)

model.0.weight f4 [16, 3, 3, 3]
00000000: f6e4 973c 5565 8bbd 128d 90bd bf52 29be
00000010: 9a72 06be d623 b43d 81d0 56bb c1f8 a5bd
00000020: 658e 6cbd ac57 10bd 7ef0 debd 1107 203e
00000030: 6bf2 fbbd 4092 df3d b818 a0bd 2d8e 1abe
00000040: 82d6 1a3e 1d9d 073e 1c87 54bd 2176 413e
00000050: 45c3 c73d 91bc ddbb a961 9ebc f0ab c9bc
00000060: 3ee8 b03d 145a b2bd 9ed7 f8bd d228 c3bd
00000070: f050 513d 3dfe 253e 4e7e b3bd 827a 383d
00000080: 9825 603d 6432 bc3d 2aed 883d c4df 473e
00000090: 2bf6 38be fac4 293e 70c3 bc3d 469c 06be
000000a0: 3f27 29bd 4e1f 383e 73d1 c73d 8761 33be
000000b0: c794 983d 9408 1ebe 8d81 2fbd e053 653d
000000c0: 74f9 133d 2c16 77bd 4c19 13be c2b8 19be
000000d0: f738 903d 8441 9fbd e999 153d a126 073c
000000e0: 01e2 38be a14b 35be 4791 cf3d 376a 0abd
000000f0: b0f7 3dbc ffa8 a33d 5241 04be 022a 4bbe
00000100: 33a4 0dbe b05d 883d d150 c0bd f1b2 223e
00000110: 860f dfbd 1f2d be3d 3501 00be 9bc6 1cbe
00000120: 85ae fdbd 128d 183e 8335 bd3d bb52 ab3c
00000130: 8bd9 3a3e 1794 1d3d 8202 2dbe 4a90 0fbe
00000140: 805a a4bd 6fb3 05be ee17 1ebe cd66 1abc
00000150: b7c0 44bd 337f 993d f783 d7bd 76b5 7a3d
00000160: 55d6 33be 06a3 ac3b 86ff 9cbd b215 033e
00000170: cf50 06bd 8cbe 0abe d7fd 4cbc b7a5 3b3e
00000180: bf87 283e d5e4 4a3d 4dcb 30be 8ad2 763d
00000190: 2bca 1ebe bb5a 4ebe 54c2 f0bd 9719 9f3d
000001a0: 78d5 143e 027c 5c3c 2628 29be 56ab aabd
000001b0: 9d84 773d a8d7 19be cf1f b5bd 026c 373e
000001c0: 32f4 ad3a 6c4d 66bd 30b3 c33d 866b eabd
000001d0: 0603 233e f296 30be d889 3fbc c7fe 04bd
000001e0: 4e8f 333e cdd9 ddbc 49c6 92bd e864 b6bd
000001f0: da7f 313d cb03 163e a9ac 35bc 1d19 a6bd
00000200: dd05 3f3d f9da 26bd 7347 023e 040d f6bd
00000210: 2b1a 423d 084c 073e 9cc5 3cbe 6687 adbd
00000220: 603b ed3d 6e87 debd 7ba0 263e 9270 683d
00000230: 82f9 edbd 51ad 9dbd 396b ad3d 4002 bb3c
00000240: a50b 60bb 0389 32be 9fb3 a3bd b83c f0bc
00000250: 95e4 bebd 4f04 e63c 81e9 bcbd 45e3 a8bc
00000260: 35d6 0ebd 3b64 283d 9c8d 56be f55d d03c
00000270: 58ab 3a3d 15b1 363e c420 51bd 1b34 0bbc
00000280: 74a6 7fbd 5916 cf3d f6ee 88bd 83cf e83d
00000290: 16b5 ca3d 8c74 d5bd 5f3a 413d 85fd b23c
000002a0: 2478 00be 4511 93bd bfa9 f23c e443 063c
000002b0: 1a03 1fbd dbda 683d ba40 93bc 5990 b9bd
000002c0: 652d 0dbd 0872 bfbd d55b acbc abf4 153e
000002d0: 80ff 073e d857 063e 4307 2dbd 2ace c2bd
000002e0: fae5 213e 9e7d 183d 0729 05bd 8541 8c3d
000002f0: 5a0a 093e 4840 0dbe b340 1e3e 125a 50ba
00000300: b56b 2bbd d018 c73d 5873 973d 155b 5b3d
00000310: 8967 333e cf29 06bd 484b e43d b126 fc3d
00000320: e638 273d 1cd4 ef3d 74f2 d73d 1555 8abd
00000330: fbf0 fd3c a3ab 26be 8d74 3c3e 0b46 bbbd
00000340: 2105 563d 8d4c 673d 2dc7 0dbe ad4b 2e3d
00000350: c728 25be fa3e 733d 895e 09bc 8dcc b43d
00000360: a3cf 0ebe 6ec2 32be c02e 0bbe 45b2 74bc
00000370: 0b1e 1c3e 2217 07be 6ba6 333e 5286 d2bd
00000380: 9841 fc3c cff0 64bd 5376 6abd 03df c5bc
00000390: 8209 aabd 56b3 0a3e e749 7dbc 2408 9a3d
000003a0: 0e51 a83d b651 233c a490 b83c e31c 3f3e
000003b0: a5a0 043e eee8 0c3d 7f51 bd3d 1409 1c3e
000003c0: 3eb6 5f3d 9b30 64bd f2dc b73d cf04 8cbd
000003d0: fb3e cbbd 17b0 d6bd 7ecc 163e 8095 b03d
000003e0: 5368 43be 5db2 87bd 6387 993d f9a2 44bd
000003f0: 12e7 97bd a355 f23d 45ed 433d 4db5 fdbc
0.018541794 -0.06806437 -0.07058157 -0.16535471 -0.13129655 0.08795898 -0.0032778087 -0.08104087
-0.057752986 -0.03523986 -0.10885714 0.15627696 -0.12302097 0.10916567 -0.07817215 -0.15093298
0.1512089 0.13243528 -0.051886663 0.18892719 0.097540416 -0.0067668636 -0.019333677 -0.024618119
0.08638047 -0.08708587 -0.12150501 -0.0952927 0.05110258 0.16210265 -0.08764325 0.045038708
0.054723352 0.09189299 0.066858605 0.19518954 -0.18062656 0.16579047 0.09216964 -0.13145551
-0.041297194 0.17980692 0.09756746 -0.17517672 0.07450252 -0.1543296 -0.04284816 0.055988193
0.03612657 -0.06032388 -0.14365119 -0.15011886 0.07042115 -0.07776168 0.036523733 0.008248956
-0.18054964 -0.17704631 0.10135131 -0.0337927 -0.011594698 0.07991218 -0.12915543 -0.19840243
-0.13832168 0.066584945 -0.093904145 0.15888573 -0.10891633 0.0928595 -0.1250046 -0.15310137
-0.123868026 0.14897564 0.09238722 0.020913472 0.18247049 0.038471308 -0.16895488 -0.14019886
-0.08025074 -0.1305673 -0.15438816 -0.009423924 -0.04803535 0.074949645 -0.10523217 0.06120821
-0.1756223 0.0052684573 -0.07665925 0.12801245 -0.03279191 -0.1354925 -0.012511692 0.18324934
0.16458033 0.049534637 -0.17265053 0.06025938 -0.15506808 -0.20151798 -0.11755815 0.07768553
0.14534557 0.0134573 -0.16519222 -0.08333461 0.060429204 -0.15023673 -0.08843958 0.17912295
0.0013271628 -0.05622618 0.09555662 -0.1144629 0.15919122 -0.17245081 -0.011690579 -0.032469537
0.17535135 -0.027081395 -0.07166726 -0.08905965 0.04333482 0.14649884 -0.011088529 -0.08110259
0.04663645 -0.040736172 0.12722568 -0.12014201 0.047388237 0.13212597 -0.18434757 -0.08473091
0.115835905 -0.10865675 0.16272156 0.05674798 -0.116198555 -0.07699073 0.08467717 0.022828221
-0.0034186628 -0.17435078 -0.079932444 -0.029325828 -0.09320942 0.028078226 -0.09224225 -0.020616183
-0.034872252 0.041111212 -0.20952457 0.025435427 0.045573562 0.17840989 -0.05105664 -0.00849631
-0.0624146 0.10111684 -0.06686203 0.11367705 0.09897821 -0.1042262 0.047174808 0.021849403
-0.1254583 -0.07181028 0.029621957 0.008194897 -0.038821317 0.05684934 -0.0179752 -0.09060735
-0.03446712 -0.093479216 -0.021039883 0.14644115 0.1328106 0.13119447 -0.042243253 -0.09511979
0.15810385 0.037229173 -0.03250983 0.06848434 0.13382855 -0.13794053 0.15454368 -0.0007947992
-0.041850764 0.097215295 0.07395047 0.05355366 0.17519964 -0.032754716 0.11147171 0.12312067
0.040825747 0.117103785 0.10544291 -0.06754509 0.030998698 -0.16276412 0.18403836 -0.09144219
0.052250985 0.05646949 -0.13845511 0.04255264 -0.16128837 0.05938623 -0.008384355 0.088280775
-0.13946395 -0.17456982 -0.13592052 -0.014935081 0.15245835 -0.13192418 0.17543952 -0.10279526
0.030792996 -0.055893715 -0.05724175 -0.024154192 -0.08302595 0.13544974 -0.015459514 0.07521084
0.08218585 0.009968212 0.022529908 0.18663363 0.12951906 0.034401827 0.0924406 0.15237838
0.05461716 -0.055710416 0.08977689 -0.06836855 -0.09924122 -0.10482805 0.14726445 0.08622265
-0.19082765 -0.06625817 0.07496526 -0.048006985 -0.0741712 0.1183274 0.0478337 -0.03097024

model.0.bias f4 [16]
00000000: 8be8 febc 49d3 02bc c72d 333e 56ef a0bd
00000010: 2e35 e73d ab94 2e3e aad0 963d 53f1 0cbe
00000020: dd5a 86bd 7e12 cfbd fdde 3fbe 0e89 363e
00000030: 431b 0fbe 436b 37bd fb12 a23d a08f d13b
-0.031116745 -0.007984945 0.17497931 -0.0785815 0.1128944 0.170489 0.07364018 -0.13763933
-0.065602995 -0.10110949 -0.18737407 0.1782572 -0.13975243 -0.044780027 0.079137765 0.0063952953

model.3.weight f4 [32, 16, 3, 3]
00000000: ee32 75bd 2991 febb f888 6dbd 5271 bb3c
00000010: 980f 04bd bf87 e23c 5fd5 a53d 3160 533d
00000020: cebd 37bd 4107 39bd 8d1e 3d3d 53a9 173c
00000030: 0f0c 333d 946d 1c3d 69ce d63c b7af 273d
00000040: b9b6 863d 771e f53c 20de 6abc f6a2 ebbc
00000050: 7c3e 2d3d ab0c 833d 5768 82bd 17d1 903d
00000060: 06e4 b7bb 1ec6 533d e830 33bd 53f0 ce3c
00000070: d278 38bc 5bcf d7bb 3cab 96bd 0102 47bd
00000080: 5bf4 68bd 1f2c 633d 79f8 91bd 88b1 8d3d
00000090: 73c7 15bd 80cc 473b 06c5 89bc f9cd 903d
000000a0: 01ea 753c adc7 e83c 3a6f 853d 7f0b 7b3d
000000b0: 6632 88bd e2c9 61bd 139b 34bd ae21 2dbd
000000c0: 4edf 853d 5259 83bc 3995 96bc 4d30 593d
000000d0: 36e5 46bd 8fda dabc edea 963b 9072 a63d
000000e0: 1a7c 77bd afef 3b3d ec51 9f3d 0bae 663d
000000f0: e190 71bd 8986 95bd 7f70 a63d c5d5 923b
00000100: 1d5c 2e3d 8c3b 6cbd 862f d6bc 4597 51bd
00000110: d97c 783d 6f35 633d ac06 843d f251 84bd
00000120: dfec 2bbc 5e0c a23d f9ce 8b3d 7afe 0fbd
00000130: 5165 96bc 40cd 2e3d 8755 8b3c 4600 95bd
00000140: d0bc 853d 5219 52bd 5f91 b73d 90d1 b53d
00000150: 1c85 743d f5a3 14bd 7978 523d 819c 853d
00000160: b4a0 56bd a2e5 7fbd 50f3 843d da8b a43d
00000170: 33cc 453d a536 273d e55f 153b d472 933d
00000180: d9c4 58bd c1cc 5e3d 7c95 1abd 1fea 0a3d
00000190: 5a11 39bc 9c9f 4fbd 57a5 823c 984e 9ebd
000001a0: f2dc 86bc 4f2f 1b3d 299e 9cbd ad1c 1ebd
000001b0: 7b2f bc3d ec19 603d 9ec4 d63c 81e9 16bd
000001c0: c783 873d f38d f0bc 601f efbc bf22 8abc
000001d0: c000 7d3d 4f32 05bd 9fd0 98bd dc29 40bd
000001e0: c784 193d 9b02 ed3c eeec 9ebd fa43 37bd
000001f0: bfac f7bc 45c7 82bd 1782 59bd 7da4 36bd
00000200: 45ee 35bd 7e45 aa3d 2776 0ebd 2dc5 433d
00000210: d198 0a3d e002 583c ea6b 663c cd77 3c3b
00000220: 39df 77bd c2f5 99bb 0144 033d 48d1 dbbc
00000230: 02e4 8e3b 1a0f 563c 490e 0dbd 10dd 913b
00000240: 2278 793d d977 6e3d 0a22 9dbd 7af7 013c
00000250: 4b78 d43c 28c3 973b c66f 86bc e74d 863d
00000260: 14b9 9fbd 25cb a2bd c51b 97bd c65d 353d
00000270: 3b16 4c3a 46a3 1b3d ba65 8f3d 6ebc 8e3d
00000280: 2a54 27bd 9eef 913d d9c9 6abd d1c0 80bc
00000290: 7c69 37bc 407e c63b 1757 b8ba 0aba 9dbd
000002a0: bd46 24bd ddaa 42bd bd31 3f3d abc3 01bd
000002b0: 2836 573d 9df5 3fbd c39a 52bd 463e 7abd
000002c0: 76e9 473d dd2a 00bc e5db 6dbd ac82 f83c
000002d0: d7a4 353d 1ae4 28bd bfbf ac3d a3a2 4f3d
000002e0: a4df e9bc 0c65 47bd 3dff 81bd e137 453d
000002f0: aa6f 993c 6b22 1bbd 61f6 0c3d b43c 8cbd
00000300: c405 93bd 3847 1e3d f1bd 7fbd 5d25 593d
00000310: 3286 343d fcba 383c 7d11 753d acb4 303d
00000320: a715 a0bc 52bb fd3c 1070 41bd 7624 0b3a
00000330: ae25 493c 462f acbd 8a93 21bd 7a6f c83c
00000340: b45a 8dbd 6b36 9abc 194f 20bd 23df b3bd
00000350: d8f1 42bd b5f5 b1bd f226 5e3d 8acb 6cbd
00000360: 8ddb 95bd 2bb9 18bc a097 073c d83e 8b3d
00000370: cc22 8fbd 7409 673b 196a 6b3c 9951 0e3d
00000380: 6648 1ebd e24e 493c bd51 5bbc da01 543d
00000390: e64f 663b e88e c0bd e503 6abd ed9c b53c
000003a0: 6726 5dbc 379d 88bc 55a8 fcbc bb32 42bd
000003b0: 459d 8b3c b688 d03c f66e 50bd 4b7d 313d
000003c0: 848d 163d b20a 703d ccc5 00bd a16e 0f3b
000003d0: b522 053d 8140 91bc 67aa 85bd 2306 3ebd
000003e0: bf84 1ebd 8f2d 88bd bcd1 f9bc d1ef 78bd
000003f0: bad0 0f3a 4238 55bd bc3a 99bd 54bb 52bd
-0.059863023 -0.0077687693 -0.05799195 0.022881184 -0.032241434 0.02765262 0.08097338 0.051605407
-0.044858746 -0.045172933 0.046171714 0.009256679 0.04371267 0.03819044 0.02622147 0.04093906
0.0657782 0.029921753 -0.014335185 -0.02876423 0.042295918 0.063989006 -0.063675575 0.07071131
-0.0056118993 0.05170261 -0.043747813 0.02526108 -0.011259275 -0.006585998 -0.07356879 -0.048585895
-0.05687366 0.055462 -0.071274705 0.06918627 -0.036567163 0.0030486882 -0.01681758 0.07070536
0.015009404 0.028415525 0.065153554 0.06129026 -0.06650238 -0.05512417 -0.044093203 -0.042268448
0.065367326 -0.016033802 -0.018381702 0.05302458 -0.048558436 -0.026715545 0.004605642 0.0812732
-0.060421087 0.045882877 0.07779297 0.056318324 -0.058976058 -0.07301051 0.08126926 0.0044810497
0.042568315 -0.057673976 -0.026145708 -0.051169652 0.06066594 0.05547088 0.06446585 -0.06460942
-0.010493486 0.07912515 0.06826586 -0.035154797 -0.018358858 0.04267621 0.017008556 -0.07275443
0.06530154 -0.05129368 0.08963274 0.088778615 0.059697255 -0.036289174 0.051384423 0.065239914
-0.052399352 -0.062474854 0.06491721 0.08034487 0.048290443 0.040823597 0.0022792753 0.07199636
-0.052922104 0.054394487 -0.037740216 0.03391468 -0.011295641 -0.050689325 0.01594798 -0.07729834
-0.016462777 0.037886914 -0.07647354 -0.038601566 0.09188744 0.05471222 0.026216801 -0.03684378
0.066169314 -0.029364562 -0.029189765 -0.016862271 0.061768293 -0.03251868 -0.07461666 -0.04691492
0.037480142 0.028931906 -0.077600345 -0.044742562 -0.030233739 -0.06385664 -0.05310258 -0.044590462
-0.044416685 0.08314036 -0.034780648 0.047795463 0.033837143 0.013184279 0.014063815 0.002875793
-0.060515616 -0.004698486 0.032047275 -0.026833192 0.0043606767 0.013065124 -0.03443745 0.0044514015
0.060905583 0.058219764 -0.07672508 0.007932538 0.025936266 0.0046314187 -0.01641072 0.065578274
-0.07798973 -0.07948903 -0.073783435 0.044278882 0.0007785295 0.037997507 0.07001825 0.06969534
-0.04085175 0.071257815 -0.057321403 -0.015716942 -0.011194583 0.0060575306 -0.0014064041 -0.077015
-0.040106524 -0.04752623 0.046678293 -0.031680744 0.05254188 -0.046865094 -0.051417124 -0.061094545
0.04880663 -0.007822719 -0.058071036 0.030335747 0.044346657 -0.04123316 0.0843501 0.05069221
-0.028549023 -0.04868035 -0.06347511 0.048148993 0.018730003 -0.03787462 0.034414653 -0.06847516
-0.07178834 0.03864214 -0.062437 0.053014148 0.04407329 0.011275049 0.05983113 0.043141052
-0.019541575 0.03097311 -0.04722601 0.00053078623 0.01227705 -0.08407454 -0.039447345 0.024467219
-0.06902066 -0.018824777 -0.039137933 -0.08782794 -0.04759392 -0.08689443 0.05423636 -0.057811297
-0.073172666 -0.009321491 0.008275896 0.06799096 -0.06989059 0.0035253437 0.014368557 0.034745786
-0.038643263 0.0122868735 -0.013386187 0.05175958 0.0035142838 -0.09402257 -0.05713262 0.022169555
-0.013497925 -0.016676528 -0.030841986 -0.04741166 0.017042765 0.025455814 -0.05088707 0.04333238
0.036756054 0.05860395 -0.031438634 0.0021886008 0.032503802 -0.017730953 -0.06526642 -0.04639257
-0.038700815 -0.066493146 -0.030495517 -0.06077558 0.000548612 -0.052055605 -0.07481906 -0.05144818

model.3.bias f4 [32]
00000000: 30d5 0ebc d7aa 89bc 1b5f 5dbd 949c 743d
00000010: 0056 ad3d 482c 473d c3ab 68bd df45 13bd
00000020: 3ca3 4bbd 267d 8bbd 193f 11bd be0f babd
00000030: fc99 5bbc 1854 483d f5c5 1e3d 0072 363d
00000040: 0c7b 2e3d 6688 b0bd 456c 08bd 1c43 67bd
00000050: 551e b3bd e4e8 663b 9fe9 973d 212a 153d
00000060: c74a ae3c 422a a0bc 1190 74bd d3a5 253d
00000070: 79fe 7a3d 9d80 5ebb 7b5c 5dbd aa36 7cbd
-0.00871782 -0.016805096 -0.054045778 0.059719637 0.08463669 0.048626214 -0.05680443 -0.035955306
-0.04971622 -0.068109795 -0.035460565 -0.09085034 -0.013403412 0.048908323 0.038763005 0.044542313
0.042597815 -0.08619766 -0.03330638 -0.056460485 -0.0874602 0.0035234028 0.074176066 0.03641713
0.021275891 -0.0195514 -0.059707705 0.040441345 0.06127784 -0.0033951171 -0.054043274 -0.06157557

model.6.weight f4 [32]
00000000: 7ba8 803f 675a 813f fb34 7e3f e139 803f
00000010: 2cf3 803f 5dbc 803f b9b1 813f 1ffd 803f
00000020: 906c 813f 7620 803f 2d79 813f b7cb 813f
00000030: 3a5b 803f ae84 813f 1ce1 803f d147 813f
00000040: 459d 803f fcd0 803f 5607 813f e84a 813f
00000050: e079 803f 2789 813f a0a7 813f e415 803f
00000060: 629d 803f 1675 803f 2236 803f 6d00 803f
00000070: 3a8b 803f 7854 813f 4ab1 803f 12ab 7e3f
1.0051416 1.0105714 0.9929959 1.0017663 1.007421 1.0057484 1.0132362 1.0077246
1.0111256 1.0009906 1.0115105 1.0140294 1.002784 1.0118616 1.0068698 1.0100042
1.0047995 1.0063777 1.0080364 1.0100985 1.0037193 1.011998 1.012928 1.000668
1.004803 1.0035732 1.001652 1.000013 1.0042489 1.0103903 1.0054104 0.9947978

model.6.bias f4 [32]
00000000: 944b 93bb b7a9 443b 71b8 78bb bf14 873b
00000010: 2917 14bb b499 443c 9521 a1bb 0157 b73b
00000020: b1af 97b9 9acf c6b9 9e55 2b3b 11d8 003c
00000030: 8bfe 76bb 65f3 703b 5ce2 493c f594 d13b
00000040: 341a 983b cbeb c3ba f032 9abb 8cfe 1fbb
00000050: adeb 4e3c 58d0 a2bb 01c7 4bba b061 493b
00000060: 4d00 2abb 6ed1 b5bb 6947 dcbb c6e6 a6bb
00000070: 5217 5ebb 0dbb ff3b d8c6 09bb 980e 563b
-0.0044950936 0.0030008384 -0.0037951733 0.004122346 -0.0022596812 0.011999536 -0.0049173334 0.0055950885
-0.00028931865 -0.00037920178 0.002614356 0.007864014 -0.003768834 0.0036766168 0.012322035 0.006395931
0.0046417955 -0.0014947591 -0.0047057793 -0.0024413196 0.012629432 -0.004968684 -0.00077734893 0.0030728392
-0.002594012 -0.0055486476 -0.00672238 -0.0050934283 -0.0033888412 0.0078042806 -0.002102306 0.0032662507

model.6.running_mean f4 [32]
00000000: fa8d a23d efd1 70bd 697a 39bb cc10 103d
00000010: ac6a 703d d777 a03d 2737 043d c4b7 c1bc
00000020: a14f fb3c 2488 e8bc 76ea 0b3d 79c4 efbb
00000030: f5cc ee3b e3a9 0e3d 2028 ffbb 6c41 973c
00000040: 03ba 9b3d 952a f23c a528 a93d 16ab 3dbc
00000050: ed7c 3dbd cdd7 6b3d d6a1 893c 9dfc 413e
00000060: d6eb 0f3e f817 793e 632e f63b 4ca2 663e
00000070: 8943 f53d bd50 b53c 7714 ffbc b395 58bc
0.07937236 -0.05879396 -0.0028301722 0.03517227 0.05869548 0.07835358 0.03227916 -0.023647197
0.030677618 -0.02838523 0.034159146 -0.0073171225 0.0072876164 0.034829985 -0.0077867657 0.018463813
0.07603838 0.02956132 0.082597055 -0.011576435 -0.046261717 0.05757885 0.016800802 0.1894402
0.14054808 0.2432555 0.007512854 0.22522849 0.11975772 0.022133226 -0.031137688 -0.013219285

model.6.running_var f4 [32]
00000000: 8d5a 943c d7ea 413b 0cb1 343b ce35 933b
00000010: 4d27 9b3b 89b5 bc3b c376 b63b ab79 403a
00000020: 6121 353b 2bad 0f3a 6203 2d3c 11b0 bf3a
00000030: 857d 263b e2d4 8d3b 3fc9 563b f397 173b
00000040: 96a4 963b c579 d43b faa3 6b3c f42e 543a
00000050: 501e a23a 9714 963b f949 863b 29b8 f63c
00000060: 8630 da3c c413 a43d 61b6 ea3a c156 9b3d
00000070: 4986 4f3c f2b5 8f3b dca8 543a 976a de3a
0.018109584 0.0029589438 0.0027571348 0.004492498 0.0047349096 0.0057589454 0.0055683567 0.00073423487
0.0027638304 0.0005480821 0.010559889 0.0014624615 0.0025404405 0.004328356 0.003277376 0.002313134
0.004597257 0.0064842426 0.014382357 0.0008094155 0.0012368653 0.004580091 0.0040981737 0.030117111
0.026634466 0.080115825 0.0017907136 0.07584906 0.012666293 0.0043857032 0.000811232 0.0016969022

model.7.weight f4 [64, 32, 3, 3]
00000000: 23b8 33bd 0820 c03c 269b 9f3c 12fb eabc
00000010: b410 ab38 ccc6 283d c37c 443d 76c1 2abd
00000020: d4ea 12bd 1d6a 193d 657e 46bc aec6 63bd
00000030: bd3a 34bd d857 3e3d c7b7 293d 424a 0f3c
00000040: 451b 62bd 69d4 f83c a005 973c 8e86 873d
00000050: 2f50 b93c b4a5 a5bc 377c c8bc 75b6 d0bc
00000060: 42bb 2c3d a82a 22bc 005c 2b3c f37e 6f3c
00000070: b303 e73c 598f d23c 4c1c 0fbd fa34 2a3d
00000080: a060 35bd 7566 a4bc 7992 63bd fd61 003d
00000090: c049 7c3c f907 083d 6d74 4fbb f180 34bc
000000a0: be21 393d c38c 3cbd 8458 e33c c705 e7bc
000000b0: da36 1bbd 08ad ff3b cbc7 333d ed9f d03c
000000c0: ccd4 85bc 9090 0b3c c3b8 0cbc 32d2 263d
000000d0: 7f85 7cbc 7a41 713d 43ba 24bd 4482 383d
000000e0: c4d0 2b3c bae5 3cbd 18da f53c 13d5 3c3d
000000f0: 17af 87bb b8a0 c43c 370b 563d 02c1 0dbc
00000100: d8b7 2f3c 1e54 d13c 91cf 68bd 3277 073b
00000110: ae7a 1c3d 7b1e 313d c827 ddb9 e196 13bd
00000120: 50a3 f5bc 5d3e 10bd dd74 12bc 250f a13c
00000130: 880c 9fbc 3159 26bd 691b ff3c ddd1 3e3c
00000140: cacd 46bb d302 a2bc 6239 b9bc 2c94 6abd
00000150: a605 1c3d adab 36bd 6370 133d fc65 463c
00000160: 32be 6fbc bbcf 9fbc 74fa 9bbc 775f 213d
00000170: 2a61 2fbc 1f05 b23c ab39 28bd f4cb dbbb
00000180: c393 5c3d 15b7 6a3d bf42 f5bc 6fbb 2e3d
00000190: f554 083d 370e 5c3d 27ba f0bc 4c78 933d
000001a0: 9e0c 15bd cf6d 293d aaf9 18bd fc1d 373d
000001b0: c917 8a3c e2e1 a1bc 04a6 82bc 7c2e 11bd
000001c0: 3547 4a3d c7d2 a33c 8870 1bbd bbf1 443d
000001d0: 3849 33bd 0323 293c 0d36 cabc bcb4 5c3d
000001e0: 1e1f 553d 7ed7 883c 8d43 ea3b 79a7 d8bb
000001f0: 0616 8ebc 7add 5b3c b34a b43c 2ba1 6abc
00000200: c4e3 03bd 9524 5d3d bda3 563d 48fc 063d
00000210: 4fbd 4dbd c570 78bc 3f6b 9abc 5f56 d7bc
00000220: 0fd8 0cbb a422 06bd f24c 1fbb f914 833d
00000230: 46f5 553d 627e 703d d1e6 533d f50c a33c
00000240: 02d5 ecbc 3c7e 2c3d f379 523a 01a8 1c3d
00000250: 7d08 f83b 363d 05bd daa6 043d 4aee dfbc
00000260: 64ab fdbc 5d5d 3abd 7a20 603d ca8c 233c
00000270: 674a 0fbd 1e1d 613c 0e76 9dbc 756f f73b
00000280: de6f 29bd 45a7 22bd 98f3 b4bb 391c cfbc
00000290: 760a da3b 2084 b7bc c367 343c cd24 58bd
000002a0: 6c18 3e3d 093b 823d f505 55b9 af09 4a3c
000002b0: f14e 863d cf77 6f3b 5dab 433c 35b0 b9bc
000002c0: f31d 983c 5138 ca3c 865e 893c 4961 02bd
000002d0: 2ffb c7bc 1bf4 6dbd 1136 443d ddb4 c23c
000002e0: 56dd fa3b e964 49bd f6a4 42bd eb57 5cbd
000002f0: ae86 5e3d 58ab 103c a7af c6bc 0847 5a3c
00000300: 1a73 3f3d 2f2e e33c 29b9 08bd e239 4fbd
00000310: 55b1 073d cb4e 25bd 0146 f5bc ad33 c93c
00000320: f277 793d 8812 62bc 9403 0d3d 5432 7b3d
00000330: b330 323d 9199 b3bc ef04 f83b a76f 60bd
00000340: 0b6f 05bd 2a21 8dbc 4cd6 bdbc 3a20 643c
00000350: d3eb 3f3d d86f 083d 594e 5abb 3db1 4a3d
00000360: 56e5 6cbc a61f b3bc 049b b43c a1aa 813d
00000370: 6761 ae3b 452f 973c 36c9 3abd c65f 81bb
00000380: 2384 483d c07f 093d 8ee6 5d3d 9f5d 423d
00000390: cf84 25bc ff26 803d 6267 753d e9bb 3eb9
000003a0: 2ba7 e73b 71bf 6b3d b2db 09bd fba3 ae3c
000003b0: 8fbe 0cbd adf5 b53c 65e3 06bd daad 7f3d
000003c0: 856e f9bb be4c 2e3d 8cec f2bc f00c 1a3d
000003d0: 40b2 23bd c656 bf3c cf8b 773d 1698 25bd
000003e0: 05a4 fbbc e13b 563d ef42 52bc 30fe 113d
000003f0: 2014 593c 6f4a 693d e8ca 703d ca77 a03c
-0.04387678 0.023452774 0.01948316 -0.028684173 8.1570266e-05 0.041205212 0.047970545 -0.041688405
-0.03586848 0.037454713 -0.012115096 -0.055609398 -0.04400133 0.046470493 0.04143503 0.008745732
-0.055201788 0.030374723 0.0184353 0.06617461 0.022621242 -0.020220615 -0.024473293 -0.025477627
0.04217077 -0.009897865 0.010458946 0.014617669 0.028200006 0.02570312 -0.034939095 0.04155443
-0.044281602 -0.020068387 -0.05555961 0.03134345 0.015398443 0.03321073 -0.0031655089 -0.01101707
0.045198195 -0.04603268 0.027752168 -0.028200997 -0.037894107 0.0078026094 0.04389171 0.025466884
-0.016336821 0.008518353 -0.0085889725 0.0407278 -0.015412687 0.058900334 -0.040216696 0.045046106
0.010486785 -0.04611752 0.030011222 0.04610164 -0.0041407454 0.024002418 0.05225679 -0.008651974
0.010724984 0.025552806 -0.056838576 0.0020670411 0.038202934 0.04324196 -0.00042182044 -0.03603256
-0.0299851 -0.035215724 -0.008938995 0.019660542 -0.019415155 -0.040612403 0.031141 0.011646715
-0.0030335062 -0.019776737 -0.02261037 -0.057270214 0.038091324 -0.044597317 0.035995852 0.012109276
-0.014632748 -0.019508233 -0.019040324 0.039397683 -0.010704318 0.021730958 -0.04107062 -0.0067076627
0.053851854 0.057303507 -0.029939054 0.04265922 0.033284146 0.053724494 -0.02938564 0.07200679
-0.036388986 0.041364487 -0.037347473 0.04470633 0.016857045 -0.01976103 -0.015948303 -0.03544472
0.049384315 0.019997967 -0.037949115 0.048082095 -0.043771 0.010323289 -0.024683977 0.0538833
0.05203163 0.016704317 0.007149166 -0.006611761 -0.017344486 0.013419503 0.022008276 -0.014320652
-0.032199636 0.053989965 0.052402247 0.032955438 -0.050229367 -0.015163605 -0.018849967 -0.026286302
-0.0021491086 -0.03274788 -0.0024307338 0.064004846 0.052235864 0.058714278 0.051733796 0.01990364
-0.028910164 0.042112574 0.0008029036 0.03824616 0.0075693713 -0.03252908 0.032385685 -0.027335305
-0.030965514 -0.045499194 0.054718472 0.009982297 -0.034983065 0.013739852 -0.019221332 0.0075511285
-0.04136645 -0.039710302 -0.0055222027 -0.025282012 0.006654079 -0.02240187 0.011011067 -0.05276947
0.04641001 0.06358916 -0.00020315482 0.01233141 0.06558026 0.0036539917 0.011942712 -0.02266703
0.018568968 0.024685057 0.016768705 -0.03183106 -0.024411766 -0.058094125 0.047903124 0.023767883
0.00765578 -0.0491685 -0.0475206 -0.053794783 0.05432766 0.008829914 -0.02425368 0.013322599
0.04674063 0.027731983 -0.033379707 -0.05059231 0.0331281 -0.040358346 -0.029940607 0.024560774
0.060905404 -0.0137983635 0.03442724 0.061327294 0.043503474 -0.021923812 0.0075689475 -0.05479398
-0.032576602 -0.017227728 -0.023173474 0.013923699 0.04685576 0.033309788 -0.003331086 0.049485434
-0.014458975 -0.021865677 0.022046573 0.06331373 0.00532167 0.018455157 -0.045602046 -0.0039481847
0.04895414 0.033569098 0.054174952 0.047452565 -0.010102465 0.06257438 0.059913047 -0.00018189814
0.0070694885 0.05755562 -0.033656783 0.021318426 -0.03436142 0.022211874 -0.032931704 0.062421657
-0.007612052 0.042553656 -0.02965381 0.037609994 -0.039964914 0.023356806 0.060436066 -0.040428244
-0.030717859 0.0523032 -0.012833341 0.035642803 0.013249427 0.05695575 0.058787256 0.01958837

model.7.bias f4 [64]
00000000: 72cc 533c 98f5 afbb b88a 8dbc 62b5 253d
00000010: bd7e 003d 637b 0cbd 2b4c 25bd 0715 46bc
00000020: 3d4e a6bc 0809 9ebc 2a36 dd3c 5f32 15bd
00000030: f90f 85bc f85c 9ebc 706f 6b3d 330b 60bd
00000040: d872 38bc 5a2f 683d 5c36 793d be33 993c
00000050: ad43 833b 8f49 363d 2b85 c6bc 15ca f4bc
00000060: f5ee 593d 70ca 243c 9538 26bd 058a afbb
00000070: 1bf2 97bc f731 723d 4f65 30bd dd6a 253c
00000080: 0820 4dbd 1026 22bd 49ff 6abc 45a9 303d
00000090: 641c 55bd 5bcd 433d e59b a1bc 53db bd3c
000000a0: 6f2d 80bd 9ab4 403c 46e6 6fbc 63f9 3a3c
000000b0: 5e75 2e3d 81fd 3abc c0e7 82bc ad79 38bd
000000c0: ef36 89bc b136 923c 328b 28bd 436f 323d
000000d0: c308 083c 22e3 a6bc 3d90 5a3d 887d 3ebd
000000e0: 778b 0abd a28b 64bd 7122 aa3b 8733 2f3d
000000f0: 101f f33c eef6 d03c 6f0e 02bd 6c74 d33c
0.0129271615 -0.005369853 -0.01727806 0.040456183 0.031370867 -0.03429736 -0.040355843 -0.012089974
-0.020300979 -0.019291416 0.027003367 -0.03642499 -0.016242968 -0.01933144 0.057479322 -0.05469818
-0.01125785 0.056685783 0.060842857 0.01870143 0.0040058703 0.044503745 -0.024233421 -0.029881516
0.053206403 0.0100580305 -0.040581305 -0.0053570294 -0.018548062 0.05912968 -0.043065365 0.010096279
-0.050079376 -0.03958708 -0.014343091 0.043130178 -0.05202903 0.047803264 -0.019727657 0.023175871
-0.06258666 0.011761809 -0.014642304 0.0114119975 0.0425924 -0.011412979 -0.015979648 -0.045037914
-0.016749827 0.017848345 -0.041148372 0.04356314 0.00830287 -0.020371977 0.053360213 -0.046506435
-0.03382441 -0.055797227 0.005192094 0.04277375 0.029677898 0.02550837 -0.031752046 0.02581235

model.10.weight f4 [64]
00000000: d86a 803f d640 803f 4d10 813f 4406 803f
00000010: eb66 813f cb3a 803f 9424 813f d2b8 803f
00000020: 1f9a 803f f730 803f 2ae3 803f 1f20 813f
00000030: b44b 833f e060 803f d261 803f 99a9 803f
00000040: fb43 823f 60fe 7f3f 3ebf 803f 6d52 803f
00000050: da1d 803f 4398 7f3f b834 7f3f e0ed 803f
00000060: 89d2 803f b43c 803f d56d 803f e98c 813f
00000070: 730a 813f 36f3 7f3f a7c9 803f f3c5 803f
00000080: d4a3 803f 6146 803f 41ec 7f3f ce62 7f3f
00000090: 0d9f 803f e88e 823f 7a3e 803f e841 803f
000000a0: 7aef 7f3f 05ea 803f 0d24 803f d4b4 813f
000000b0: 1ac7 803f ed9b 803f cf35 803f 5b71 813f
000000c0: f15a 803f 18d5 7f3f f640 823f c979 803f
000000d0: c628 803f 016b 803f 0f5a 823f dc18 803f
000000e0: da99 813f 42d2 803f 5715 813f 8ee4 803f
000000f0: b586 803f 3860 803f 8db8 803f 63d9 803f
1.0032606 1.0019786 1.00831 1.0001912 1.0109533 1.0017942 1.0089288 1.0056403
1.0047034 1.0014943 1.0069325 1.0087928 1.0257478 1.0029564 1.0029852 1.0051757
1.0176996 0.9999752 1.0058362 1.0025154 1.000911 0.9984171 0.9968982 1.0072594
1.006425 1.0018525 1.0033518 1.0121127 1.0081314 0.99980485 1.006154 1.0060409
1.0049996 1.0021478 0.9996987 0.9976014 1.0048538 1.0199862 1.0019066 1.0020113
0.9997479 1.0071417 1.0011002 1.0133309 1.0060761 1.0047585 1.0016421 1.0112718
1.0027753 0.9993453 1.0176075 1.0037166 1.0012443 1.0032655 1.0183734 1.0007586
1.0125077 1.0064166 1.0084637 1.0069749 1.0041109 1.0029364 1.005632 1.0066341

model.10.bias f4 [64]
00000000: 93f0 4bbc 34d3 9bbc e78d 203c 0d0b 3f3b
00000010: 1ae7 ecbb fc29 ddbb de71 e6ba e2ef a13b
00000020: a324 bf3b bea6 273c f6d5 573c abc8 fdbb
00000030: 2ba6 1f3c 256f cbbb 4008 28bc b79a 373c
00000040: 7c90 3d3c 2133 173a 1045 43bc 751d 21bc
00000050: a2db 5cbc 9adc 1cbc ad17 8aba 98c5 debb
00000060: 7b8e 55bc fadd b7ba 4052 3bbc f4b3 a73b
00000070: c5a6 563c cad7 29bc eceb 91bb b6d6 55bc
00000080: 0425 8fbb 0e2e 63bc a3ea 2dbc 45a4 243b
00000090: 7605 9f3b 4199 89bc 7e96 40bc b246 50bb
000000a0: 4451 dbbb 30d4 9dbb 6e47 16bc fcc6 1abc
000000b0: d3db 06bc d848 5a3b a939 4dbc 64cf dd3b
000000c0: a963 d4b8 0d6a a0ba 0912 a1ba 7fc0 aabb
000000d0: 9bd0 3ebc fd61 a2bb 74eb b4bb 0634 1cbc
000000e0: 6eca ac3b f2a9 463b 6f5a 023c 13bd 8fbc
000000f0: b685 ec38 d48c 303c ba8b 003c 22e2 b0bb
-0.012447494 -0.019021608 0.009799457 0.0029150874 -0.007229698 -0.0067493897 -0.0017581542 0.0049419263
0.005833225 0.0102326255 0.013173571 -0.0077448688 0.009744207 -0.006208318 -0.010255873 0.0112063205
0.011570092 0.00057678117 -0.011918321 -0.009833683 -0.013480099 -0.00957408 -0.001053562 -0.0067984574
-0.013034458 -0.0014027946 -0.011433184 0.0051178876 0.013101284 -0.0103663895 -0.004453173 -0.013051679
-0.0043684263 -0.013865961 -0.010615024 0.0025122326 0.004852946 -0.01679671 -0.01175463 -0.003178042
-0.006693037 -0.0048165545 -0.009172304 -0.009446856 -0.008231121 0.0033307578 -0.012525954 0.0067691077
-0.00010127511 -0.0012238637 -0.00122887 -0.0052109356 -0.011646415 -0.004955529 -0.0055212323 -0.009533888
0.005273155 0.0030313698 0.007956131 -0.017546212 0.000112782625 0.010775764 0.007845813 -0.005398051

model.10.running_mean f4 [64]
00000000: 98e0 383d fb69 af3c f46a 8e3c b397 4b3d
00000010: c027 2c3d 5758 5f3b 3c1c 39ba 2125 423c
00000020: bd87 ba3c aca8 043c b0b0 283d c31d 933b
00000030: 1d4e a83b 77d9 c83c c84f 703d 2f40 02bc
00000040: cf2d 5c3c b03e 803d 6855 8a3d 94b5 fd3c
00000050: 30b2 ce3c ae0d 3d3d 3700 0b3c 091b ebb7
00000060: c143 573d 8926 a83c e64e da3b afa9 f43b
00000070: bd45 bf3c b0c6 793d 4c7a 19ba b013 033d
00000080: 0a94 c1b9 5df3 043c fc41 f43b 216f 2b3d
00000090: 3121 e5bb 130b 843d d6c2 573c 1327 173d
000000a0: 8eee bf3a bf8b eb3c 1eaf b83b 29a9 043d
000000b0: 707a 3c3d 5112 513c 72d6 ca3c bc85 213c
000000c0: 4568 3e3c 6723 da3c 9553 adbb e86f 503d
000000d0: eeee e63c 4342 b73c c98b 6e3d f91e 1b3a
000000e0: 1899 6e3c 13d1 abbb a87f 0f3d 862c a03d
000000f0: dbea 033d 2c51 683d fcd3 593b 1c4b 2b3d
0.045136064 0.02141284 0.017384984 0.04970522 0.042030096 0.0034079754 -0.0007061397 0.0118496725
0.022769803 0.008096855 0.041184127 0.004489632 0.005136265 0.024517758 0.058669835 -0.007949873
0.013438656 0.06261957 0.06754571 0.030970372 0.02523145 0.046155624 0.008483938 -2.8026772e-05
0.05255485 0.020526187 0.0066622375 0.007466517 0.023348683 0.0609805 -0.00058547105 0.032001197
-0.00036922126 0.008114663 0.007454155 0.041854028 -0.006992482 0.06447425 0.013169011 0.0369025
0.0014643238 0.02875316 0.00563611 0.032387886 0.046015203 0.012760715 0.024760459 0.009858545
0.0116215395 0.02662821 -0.005289505 0.050887972 0.028190102 0.022370463 0.05823878 0.0005917396
0.014562868 -0.0052434294 0.03503385 0.07820992 0.032206398 0.056718037 0.0033237925 0.041819677

model.10.running_var f4 [64]
00000000: c904 483c 5705 a13b dd96 163b 1af1 eb3b
00000010: 2290 913b 46b7 063b 4978 8f3a ab26 eb3a
00000020: 9f97 863b 5192 c63a fbe4 2c3b dc21 3b3b
00000030: 279a a43a ccf4 0a3c a670 c73b a736 0c3a
00000040: 007c ea3a 08da 993b fdc6 e13b 73ce a13b
00000050: 5656 8c3b d3f2 b23b 72c5 cb3a dcab 9d3a
00000060: 043e b43b e8c8 0b3b 4aa0 853b d3e9 843a
00000070: 6c19 733b 1b89 163c 4079 833a b98e fc3b
00000080: 5912 0b3b 4a29 843b 3b1b cc3a 1273 1d3b
00000090: 7316 093a 5e53 c03b f87f 713b 75ed 6c3b
000000a0: 6569 893b a576 473b 7322 8f3a fc41 533b
000000b0: d036 3e3b 9f12 053b 9052 f53b 4196 2a3b
000000c0: 3345 a83a a37a 6f3b 445f 083a c18c 833b
000000d0: 65f6 bc3b cee7 083c ceb3 f93b 4562 013b
000000e0: f79b 663b a8b5 503a 6abb 643b c1e8 e13c
000000f0: 3801 0e3b 0810 c83b 9d33 fb3a f59d f23b
0.012208172 0.0049139666 0.0022978105 0.0072003724 0.004442231 0.0020556017 0.0010945882 0.0017940601
0.00410743 0.0015149807 0.00263816 0.0028554117 0.0012558148 0.008481216 0.006086427 0.000534872
0.0017889738 0.004695181 0.0068901763 0.0049379407 0.004282753 0.005461076 0.0015546514 0.0012029367
0.005500557 0.0021329466 0.004077946 0.0010140486 0.003709401 0.009187962 0.0010030642 0.0077074436
0.0021220653 0.0040332424 0.001557208 0.0024024886 0.00052294804 0.005869313 0.0036849957 0.0036152278
0.004193472 0.0030435708 0.0010920301 0.0032235375 0.002902437 0.0020305288 0.007486649 0.00260295
0.0012838006 0.0036541603 0.0005202184 0.004014582 0.005766677 0.008356048 0.0076203113 0.001974241
0.0035188177 0.0007961639 0.0034901747 0.027576806 0.0021668207 0.0061054267 0.0019165162 0.007404084

model.11.weight f4 [128, 64, 3, 3]
00000000: ba24 fbba 2e38 1a3d 6589 50bc e2fb 25bd
00000010: bd43 86bc 5cf0 d63b 9288 cbbc 6a1d e7bc
00000020: 31da 9b3c e1e3 983c 5dca d1bb a26a f2bc
00000030: 034b 973c c945 d53c c3f7 2a3c f3ac e43b
00000040: dd69 8bbb 5b40 cbbc b9f6 f73b 7e22 9a3c
00000050: 3ad0 793c 06d7 1f3a 3f04 1ebb 979c e0bc
00000060: ca75 fa3c cfee d63b 9c4c e6bb f1f7 0b3d
00000070: b599 043d 57ef c63c 4392 d9bc 99e3 e33c
00000080: e89c 49bc 5165 263d 72f4 2cbc ff1c 8b3c
00000090: 2036 50bd dcd6 4cbd 011f a23c 4885 81bb
000000a0: 8307 5b3b 98d5 28bd 20c1 4e3c def0 7c3c
000000b0: ea20 fdbb 44f7 4cbc 7846 323c 4c13 05bd
000000c0: 9394 ecbc 1447 13bc a430 1cbc 69f1 003d
000000d0: a0a0 7abc d7ff 04bd 9586 a23c 90c5 30bc
000000e0: 1609 16bc 6f70 3abd 9ed8 c53b e351 813c
000000f0: f572 97bc 9a81 aa3c 07b4 7bbc 7e3a 1ebd
00000100: 56df 29bd a727 0dbd 17ef 84bc 54a0 003d
00000110: e1e1 3c3b f18a 813c 0a73 103d d384 d4bc
00000120: 23ed 1a3d a368 a1bc 187a 12bb 56b0 2f3c
00000130: a6dd c33c 264c e23c ff94 8cbb 7a99 50bc
00000140: b35a 3dbd f378 703b 6c60 253c 0edd 3c3d
00000150: 2925 06bc f13c 1abd bf1c d1bc f0a6 b4bc
00000160: 9ee1 873c 60d2 c33c 4c44 223d 217e f83c
00000170: f0c9 dabc b204 333d 8c56 f1bc f45b 233c
00000180: 2de7 f2bb 891c 2f3c 6050 5b3c 7af6 20bd
00000190: 7453 7bbc 62d9 1e3d 2eac 6ebb 8c8f b4bc
000001a0: 50e3 853c 3d0b 8f3c ed5a 8cbc 8a19 023d
000001b0: b121 2ebd 1a64 a13c 8da6 e0bc c39a c0bc
000001c0: 09ab eabb b420 2bbd 7ee7 d33c b7ec b33c
000001d0: aea1 56bc a225 9bbc 0997 a33c 0f80 163c
000001e0: 6fd9 febc 6c63 833c 5a8c cd3b 0b5c 033d
000001f0: dc5f 133d b185 56bc 4b76 053c 3272 bf3c
00000200: d2d9 1bbd bc7e 943b b247 23bc 0613 af3c
00000210: 77a9 b73b 0322 0e3d c4e1 1e3d 8ef0 a1bc
00000220: b3f4 323d 9e69 10bd 085d 573b a91a a03c
00000230: 3078 e03c cd39 073c 1c36 bcbc 4dc7 d13c
00000240: 59e3 77bc 6d7f 92bc 4a6b febc 8e59 d03c
00000250: c255 b93c a0ab d23b 8569 1ebd 74b3 e73c
00000260: f01f ad3b 54c1 45bc 4b12 fe3c d8aa 2ebc
00000270: a553 0d3d 683f 053d 36e0 3dbd 6ee7 0c3d
00000280: a531 ad39 69e1 f83c e34b 05bd 6c99 27bd
00000290: bd71 f9bc 64b2 f2bc 227c bc3c d54a 39bd
000002a0: 3785 cd3b 4b39 83bc b699 1f3c 56e3 22bd
000002b0: 137a fb3b a438 c63b 20a7 e8bb 73b7 823c
000002c0: 3754 ab3c e92f 8dbc d430 f83c 4ca1 af3a
000002d0: 02f5 a33c 7ede 08bd bbe8 29bb ec8e d4bc
000002e0: 616c 0d3c 8960 dcbc 0eaf b1bc b6f5 80bc
000002f0: b3d4 363c 371c 16bc 10ad b03b e855 67bb
00000300: 5881 fabb 367f bebc 4560 42bc 6b35 6a3a
00000310: cc47 bf3c d441 9cbc 2457 1ebd b13d 7439
00000320: 2005 21bd 8b2c 05bd d42a ecbc 1d00 3cbc
00000330: a86c 183d 2fb2 3d3b 95c9 68bc 69b9 8abc
00000340: a011 17bd 2c04 cd3c a004 29bb 5d1d bb3c
00000350: 430d e63b 73a6 21bd d8da cb3c 671b f7bc
00000360: 7ad5 11bd f7e4 30bd 8f71 c6bc 2c53 90bc
00000370: 5894 c2bc 2e42 d33c 9162 27bd 4ab9 82bc
00000380: 1db7 183d b181 30bd eeef e5bc 3527 0ebc
00000390: 56ea 7c3b 2a1a 083d cd99 7abc dce6 9cbc
000003a0: 9224 c8bc 11e1 e0bb 07c8 0bbd 432b a0bc
000003b0: 5aaa 903c 204c 0f3d 5a48 283d d43f 193d
000003c0: 435a 473c 82a4 d43c b014 32bb db3f ad3c
000003d0: 414a 36bc ca22 02bb 79dc 94bc 7fe1 7c3a
000003e0: 0e50 36bd b977 e1bc 3b95 8ebc f52c 263d
000003f0: cea0 1abc 558c 553c 1e76 f0ba 607e 213d
-0.0019160726 0.037651233 -0.01272807 -0.040523417 -0.016389722 0.006559415 -0.024845395 -0.028212268
0.01902494 0.018663349 -0.0064022974 -0.029591862 0.018468386 0.026034253 0.010435048 0.006978625
-0.0042545632 -0.02481096 0.0075672534 0.018815275 0.015247399 0.00060974096 -0.0024111418 -0.027418418
0.030573744 0.00655923 -0.0070281755 0.034172002 0.03237315 0.024284048 -0.026559 0.027818488
-0.012305476 0.040623967 -0.010556327 0.0169816 -0.050832868 -0.050009593 0.019790174 -0.003952656
0.0033421225 -0.041219324 0.012619287 0.015438287 -0.007724871 -0.012510125 0.010881059 -0.032489106
-0.02887944 -0.008989114 -0.009533081 0.031480227 -0.015297085 -0.03247055 0.019839564 -0.01078929
-0.00915744 -0.04551738 0.0060377857 0.015786117 -0.018487433 0.020813752 -0.015362746 -0.03863
-0.041472755 -0.034461644 -0.016227288 0.0314029 0.0028821158 0.015813323 0.03526596 -0.025942242
0.037823807 -0.019703215 -0.0022350606 0.010723194 0.023909401 0.027624201 -0.0042902227 -0.012731904
-0.046229076 0.0036693185 0.01009379 0.04610925 -0.008187571 -0.037655775 -0.025526403 -0.022052258
0.016587075 0.023904026 0.039615914 0.03033358 -0.02670762 0.04370565 -0.029460214 0.009970654
-0.007412812 0.010687956 0.013385862 -0.03929756 -0.015339721 0.03878153 -0.0036418545 -0.022041105
0.016343743 0.017461414 -0.0171332 0.031762637 -0.0425126 0.019701052 -0.027423168 -0.023511296
-0.0071615023 -0.041779235 0.02586722 0.02196346 -0.013100071 -0.018938843 0.01996948 0.009185805
-0.03110954 0.016038619 0.0062728347 0.0320702 0.03598009 -0.013093398 0.008145879 0.023369882
-0.038049527 0.0045317095 -0.009965824 0.021371376 0.0056049186 0.034700405 0.038789526 -0.019768026
0.043690395 -0.035256974 0.0032861847 0.019543963 0.02740106 0.008253527 -0.02297502 0.02560773
-0.0151298875 -0.017883027 -0.031057019 0.025433328 0.0226239 0.0064291507 -0.03867485 0.028283812
0.0052833483 -0.012070019 0.031014582 -0.0106608495 0.034503598 0.032531172 -0.046356402 0.034400396
0.0003303412 0.030380921 -0.032543074 -0.0409178 -0.030449742 -0.029626079 0.02300841 -0.04523738
0.006271984 -0.01601853 0.009741237 -0.039767586 0.0076744645 0.0060492326 -0.007100001 0.015956616
0.02091418 -0.01723476 0.03029672 0.0013399511 0.02001429 -0.03341531 -0.0025926072 -0.025947057
0.008631797 -0.0269015 -0.021689918 -0.015742164 0.01115911 -0.009162 0.0053917244 -0.0035299007
-0.0076448135 -0.023254018 -0.011863773 0.00089343515 0.023349665 -0.019074358 -0.038657323 0.00023292635
-0.03931153 -0.032513183 -0.028829016 -0.011474636 0.037212998 0.0028945317 -0.014208217 -0.016934114
-0.036882043 0.025026403 -0.002579011 0.02284115 0.007020624 -0.03946538 0.024884626 -0.030164434
-0.035603978 -0.043187108 -0.02422407 -0.017617784 -0.023752376 0.025788393 -0.040865485 -0.015957493
0.037284005 -0.043092433 -0.028068509 -0.00867634 0.0038591824 0.033228077 -0.015295458 -0.019153051
-0.0244315 -0.0068627675 -0.034126308 -0.019551879 0.017659355 0.034984708 0.041084625 0.037414387
0.012167516 0.02595735 -0.0027172975 0.021148613 -0.011126102 -0.0019857162 -0.018171536 0.00096466386
-0.04450994 -0.027522909 -0.017405143 0.040570218 -0.009437753 0.013033946 -0.0018345749 0.03942716

model.11.bias f4 [128]
00000000: 45db e3bb 53ee ecbc bdb1 f13c e932 b23c
00000010: 9df8 ad3c 9fea f1bc bf8b cdbb c525 eabc
00000020: d579 cab8 19c7 373c bcb7 14bd e9df 7d3c
00000030: 3931 b2bc 6ea5 033c 4da4 e23b f6c2 5f3c
00000040: 8f64 fd3c 69da dcbc 3449 bfba f5f2 4e3d
00000050: 6b8c 69bc f718 d4bc 960b f33a 4699 383c
00000060: baf7 113c 89da d83c ef65 ebbc e4be 74bc
00000070: eff3 60bc 2a99 31bc 7a1a 6ebb 04d7 223c
00000080: 2804 e8bc d5d9 de3b 9e5c bf3c 4de5 2f3d
00000090: 6f3a f53b 1c7c 1cbd d244 503c 44bc af3c
000000a0: 0017 9abc 8e6a 8abc c107 4abb 1089 85bc
000000b0: 0605 00bd 35e6 81bc 55ec 13bd f194 a03c
000000c0: 5299 683c a5b4 47bb 50b0 8a3b 13a0 353c
000000d0: dba7 bfba 9711 743b 52b1 c539 9130 033c
000000e0: ee20 193b 7291 11bd e20a a83c fcb1 65bb
000000f0: c556 c9bc 1996 0ebc 5a5f f1bc 6c7f ccbc
00000100: 645e ff3c 4e0c c53c 0aaf a1bc c612 1f3d
00000110: 2d2a 193d 4821 83bc 7a1d 51bc 0238 5cbc
00000120: f583 8d3c 9ed8 20bd ba54 35bc 758e b63c
00000130: 4fb6 2a3d 4885 1dbd 37d2 ed3c 93ab aabc
00000140: e0ba a83c 6567 5bbc 2633 b7bc 55b0 52bb
00000150: 4b87 bf3c 4be0 9dbc 6398 af3c 54b1 4bbc
00000160: d382 073a 0533 d23c f466 15ba d28d cabc
00000170: b15a 13bd 1efb 2ebd bb23 cfbc 0536 c03c
00000180: 3c5f 23bd f127 d43b 0ef7 56b9 5195 01bd
00000190: 227a 633c 0a59 7a3c 2cad 55ba 8344 b4bc
000001a0: 29a7 32bc 0b70 263d ff44 ed3b 3646 d9bb
000001b0: f7cd 2d3d 1e54 753a b689 87bb 8f79 2bbc
000001c0: e0b7 97bc 7d64 303c e765 8abc 1ddc dd3c
000001d0: 40d0 08bc 4a2e 55bc dc01 543c 0068 72bc
000001e0: b7f8 91bc fcf2 a8bc 88e3 ee3c 9378 a8bc
000001f0: 4251 e43c 7c01 abbc 3d3a 06bd a5db 04bd
-0.006953629 -0.028922236 0.029503698 0.021752791 0.021236712 -0.029530821 -0.0062727625 -0.028582463
-9.6548036e-05 0.011216902 -0.036308035 0.015495279 -0.021751987 0.008035047 0.006916559 0.013657322
0.03093174 -0.026959615 -0.001459396 0.05052467 -0.01425467 -0.02589081 0.0018542882 0.011267012
0.00890916 0.026471393 -0.02873513 -0.01493809 -0.013730033 -0.01083974 -0.00363317 0.009938959
-0.028322294 0.00680087 0.023359593 0.042943288 0.0074837725 -0.038204297 0.012711721 0.021452077
-0.018809795 -0.016896512 -0.0030827376 -0.016300708 -0.03125479 -0.015856842 -0.036114056 0.01960227
0.014196711 -0.0030472663 0.004232444 0.011085528 -0.0014622168 0.003724193 0.00037706882 0.008007185
0.0023365575 -0.035539098 0.020513002 -0.0035048714 -0.024577508 -0.008702778 -0.029464412 -0.024963103
0.031172939 0.024053719 -0.019736785 0.038836263 0.037393738 -0.01600708 -0.012763375 -0.013441088
0.017274836 -0.039269082 -0.011067564 0.022284726 0.04167777 -0.038457185 0.029030902 -0.020833766
0.020596921 -0.01339135 -0.022363257 -0.003214856 0.023379942 -0.01927199 0.021434968 -0.012432415
0.00051693356 0.025659094 -0.000569924 -0.024725828 -0.035975162 -0.042719953 -0.025285592 0.023463259
-0.039885744 0.006474488 -0.00020500665 -0.03163654 0.013884099 0.015280018 -0.000815111 -0.022005325
-0.010904112 0.040634196 0.007240891 -0.0066306842 0.04243275 0.0009358543 -0.0041362895 -0.010465994
-0.018520296 0.010766146 -0.016894294 0.027082497 -0.008350432 -0.013011524 0.012939896 -0.014795303
-0.017818792 -0.020623676 0.02916123 -0.020565307 0.027870778 -0.020874731 -0.032770384 -0.03243603

model.14.weight f4 [128]
00000000: 5910 813f 403b 813f cbdc 7f3f ed50 803f
00000010: 38bb 7e3f 04a6 803f 88d8 803f d3e9 7f3f
00000020: bc39 813f 1fda 813f c028 803f 5a8d 7f3f
00000030: 9b5e 803f b5d4 7e3f c749 803f 4b3b 813f
00000040: 425b 803f c620 803f 4f3e 803f 9772 823f
00000050: 212a 813f 03c9 803f 2263 813f 9658 803f
00000060: 6cd5 803f 8bf9 813f 2ef6 803f 46b8 7f3f
00000070: a334 813f 86db 823f 6213 823f 3ccf 813f
00000080: 4088 813f b03b 7f3f 1027 803f bb15 813f
00000090: f327 803f 376a 803f 268a 803f 5cfb 7f3f
000000a0: 8496 813f d450 803f 6660 813f ca26 803f
000000b0: 25ae 803f fcc8 803f c9b4 803f 5321 803f
000000c0: 343c 803f b81f 803f 6d5e 803f f648 813f
000000d0: 937c 813f 517f 813f 89f1 7e3f ef8e 7f3f
000000e0: 1cc5 803f f901 813f 9b56 803f 60e5 7f3f
000000f0: b5c4 7e3f 5032 7f3f 3e00 803f 5aa7 803f
00000100: 7438 803f 0843 803f 3eff 7f3f 2346 7e3f
00000110: ccdc 7e3f 9f31 803f c869 803f d253 813f
00000120: a1d0 7e3f 565c 803f 594c 803f 6c1e 803f
00000130: 8e19 813f 5c97 803f 984b 7f3f 1c2b 803f
00000140: 3241 803f b5b1 803f 70d5 7f3f b56b 823f
00000150: 9f0c 803f e320 803f bbd2 7f3f a92f 803f
00000160: 7ecc 803f dcd1 7f3f f223 803f 7255 803f
00000170: 124b 803f f840 803f 7f92 803f f0ec 803f
00000180: 3893 7f3f b696 803f 6d94 813f 113c 813f
00000190: 49da 803f 9b9f 7f3f d8d7 803f 7294 7f3f
000001a0: b314 813f 36f2 7f3f f240 7e3f 87df 803f
000001b0: 62f6 7f3f dac0 7e3f 1e34 803f 7e25 813f
000001c0: 77d9 7f3f 5222 803f def3 803f 200b 813f
000001d0: dbcf 803f fabd 813f bc29 803f b07b 803f
000001e0: fc3f 813f ed2e 813f ece9 803f 9395 813f
000001f0: ede8 7f3f b51e 813f a62f 813f d3a8 803f
1.0083114 1.0096207 0.9994628 1.0024697 0.99504423 1.0050664 1.006608 0.9996616
1.0095744 1.014469 1.0012436 0.9982506 1.0028871 0.99543315 1.0022515 1.009622
1.002785 1.0010002 1.0019015 1.019122 1.0090982 1.0061344 1.0108378 1.0027034
1.0065131 1.015428 1.0075128 0.99890554 1.0094188 1.0223243 1.0162165 1.0141368
1.0119705 0.9970045 1.0011921 1.0084757 1.0012192 1.0032414 1.004216 0.9999292
1.0124059 1.0024667 1.0107543 1.0011837 1.0053145 1.0061336 1.0055171 1.001017
1.0018373 1.000968 1.0028816 1.0100391 1.0116142 1.0116979 0.99587303 0.99827474
1.0060153 1.0078727 1.002643 0.99959373 0.995189 0.99686146 1.0000074 1.0051072
1.0017228 1.0020456 0.99998844 0.9932577 0.9955566 1.0015143 1.0032282 1.0103705
0.9953709 1.0028179 1.00233 1.0009284 1.0085924 1.0046191 0.9972472 1.0013156
1.0019896 1.0054232 0.99935055 1.018912 1.0003852 1.0010036 0.99930924 1.0014545
1.0062406 0.99929595 1.001097 1.0026076 1.002291 1.0019827 1.0044707 1.0072308
0.99834013 1.0045993 1.0123421 1.0096456 1.0066615 0.99852914 1.006587 0.99835885
1.0084442 0.9997896 0.9931785 1.0068215 0.99985325 0.9951302 1.0015905 1.0089567
0.999412 1.0010474 1.0074422 1.008152 1.0063432 1.0136101 1.0012736 1.0037746
1.0097651 1.0092446 1.0071387 1.0123771 0.9996479 1.0087496 1.0092666 1.0051521

model.14.bias f4 [128]
00000000: 10a7 19bb 497c 1e3c 0c47 073c d0a1 e4bb
00000010: 9508 2dbc 81c3 233c ba34 2dbc 2016 d8bb
00000020: 4322 25bc 972b a03b a14c bbbb 8cad ea3b
00000030: 1650 e43a 3802 3e3b 6d24 113c ae3b 11bc
00000040: 5410 fabb 9b25 0d3b cc23 adbb 02ec d03b
00000050: 3b2d 983b d77b 55ba 67cf 39bc c3ff 05bc
00000060: 4794 42bc 727f 3cbc 99ed 0b3c 419a 193c
00000070: 2e39 2dbc fe65 39bc d808 83bc f9b8 34bc
00000080: 96ec d83b eba8 2d3c 4248 4bbc b285 eabb
00000090: 71c4 0b3c bea6 163c ba37 103c fd8d 0e3c
000000a0: d90e e6bb 65eb 0b3c aef5 303c 862f 083c
000000b0: a643 0d3c 088e 183c eecf edbb 983b e73b
000000c0: bc55 183c dae6 1a3c 1ea5 abbb aaac 0f3c
000000d0: 6ae2 08bc acb7 753b 5e21 04bc d600 133c
000000e0: 56ed b63b 659b d1bb c5be 213c 6a33 e9bb
000000f0: 79d3 123c 4300 0b3c 2ee1 153c 5439 253c
00000100: 0dc3 183c da5e 0f3c d97b 293c ed4c fe3b
00000110: 6650 0e3c aa5c dfbb 95db 1d3c 3ab5 b6bb
00000120: 10e0 ceba cde3 e3bb 2f7c 183c 6373 1b3c
00000130: 2cb2 2e3c 2193 053c c1ab edbb 6d00 0b3c
00000140: ef02 1c3c 9b1b 573c 247e 183c 3e7d 863b
00000150: ee29 9dbb b9c7 9fbb 48de cbbb ec26 69bc
00000160: ddb2 353c 3805 063c 182d 20bc d2fd 143c
00000170: 916e e7bb a40f 0e3b 242b 0c3c df55 05bc
00000180: 3060 0e3c 7580 073c 4cea 1abc 4b63 fa3b
00000190: 0e7a bdbb 5d84 353c 0e59 0c3c fa2b 04bc
000001a0: 0a58 703c 313c 88bc 41d2 b0bb 3b57 0b3c
000001b0: f74d e9bb c675 67bc eca9 ffbb 0990 0b3c
000001c0: 549a eebb b8eb a6bb 4f57 073c bc1e 1ebc
000001d0: 8c32 0f3c 5b34 04bc 8f69 a0bb f3f0 1d3c
000001e0: db5c 80bc b6e6 9d3b 5870 f23b 62da ac3b
000001f0: 1921 083c a2f3 19bc a047 1e3c 2469 cbbb
-0.0023445524 0.009673187 0.008256685 -0.0069772974 -0.010561128 0.009995342 -0.010571653 -0.0065944344
-0.010078969 0.004888009 -0.005715922 0.0071618017 0.0017418887 0.0028993022 0.008858782 -0.008864326
-0.007631341 0.0021537307 -0.0052838083 0.0063757906 0.0046440638 -0.0008143759 -0.0113409525 -0.008178654
-0.011876172 -0.011504995 0.008540534 0.009375156 -0.010572715 -0.011315821 -0.015995428 -0.011030429
0.00662 0.010599355 -0.012407364 -0.007157051 0.008530722 0.009195028 0.008802349 0.008700845
-0.007020813 0.008540009 0.010800762 0.008312112 0.008622086 0.009311207 -0.007257453 0.0070566647
0.009297784 0.009454453 -0.0052381894 0.008769194 -0.008354763 0.003749351 -0.008064596 0.008972367
0.005582492 -0.0063966983 0.009872143 -0.0071167247 0.008961552 0.008483949 0.009147925 0.010084469
0.0093238475 0.008750642 0.010344469 0.007760635 0.008686161 -0.0068164663 0.009634872 -0.005575803
-0.0015783329 -0.006954646 0.009306951 0.00948796 0.010662597 0.008152754 -0.0072531407 0.008483988
0.009522184 0.01312914 0.009307418 0.0041042855 -0.004796258 -0.0048761037 -0.0062215663 -0.014230471
0.011090008 0.008179955 -0.009776376 0.009093719 -0.007062741 0.0021676803 0.008555207 -0.008138149
0.008689925 0.008270373 -0.009455275 0.007641231 -0.0057823723 0.011078921 0.008566154 -0.008067125
0.014669428 -0.016630264 -0.005396158 0.008504684 -0.00711989 -0.0141272005 -0.0078022387 0.008518227
-0.007281581 -0.005094018 0.008260562 -0.009650882 0.008740079 -0.008069123 -0.004895396 0.009639966
-0.015669277 0.0048187627 0.0073986463 0.0052750567 0.008308672 -0.0093964655 0.009660631 -0.006207602

model.14.running_mean f4 [128]
00000000: 6c02 d23c f82b cbba 7d37 1a3d b778 b33c
00000010: 2cc7 f83c 9006 cc3b d291 a83b 7fc0 9abb
00000020: f378 b93c 2aa6 223d 67a1 06ba 0d33 a73c
00000030: 165e 013b 27f7 443c 1a51 533c 4fe6 233d
00000040: 000d 023d 1633 913a b025 c23b 7ecf 7b3d
00000050: b7de c13c 49a8 1b3b 802b 053d 2d01 443c
00000060: 7c20 193d 7325 eb3c 9102 a93b 314d 3f3b
00000070: 00d3 a93c b6f2 ea3c 41b2 153d f4c6 153d
00000080: b47f b83a 7043 1c3c 2085 053d 5f02 333d
00000090: 607b 643c 8aa9 deba 69bc bc3c 121e b83c
000000a0: 0f48 f13a c429 d13a 3176 643c 33f1 a53b
000000b0: 8643 43bb 26d9 613a 6cec d63b 2dab e43c
000000c0: 586e 8b3c 8c9e 033c c611 243c 930a a93c
000000d0: 73bd 663c b634 913c 61e8 0b3c dc7b 473c
000000e0: 70de d03c 853c 91bb 38fb eb3c dfb9 c03b
000000f0: 8b66 04bb 0ed9 3f3c e560 e8ba 6b08 a83b
00000100: 1c2f 003d c0f6 d33c 2f4c 05ba cbe5 4c3d
00000110: 12ba 123d bb90 a13b 8650 283c 986e be3b
00000120: 9454 b33c d086 383b b0b1 b03b 5fb8 cd3c
00000130: d2d5 463d 3863 86bb a3e6 023d 1917 913b
00000140: 284b 973c fb08 cc3b 85d0 29bb 32ea 363d
00000150: 4fe2 c93c 8fd9 a03b 8c57 bb3c 3740 e23b
00000160: 64be 703c 210f d03c 5271 e43c e285 043b
00000170: 1732 cdbb f226 71ba 0fde 78ba 90a7 c93c
00000180: 96a8 9abb 9e38 043d 7054 523c e54e d0ba
00000190: 2cf7 8e3c f25e c23c edd6 063c 42cd 813a
000001a0: 6d48 c13b c906 6a3d fb68 353c 01af 2d3c
000001b0: 1fa3 343d 565b 5b3c 1357 813c d610 d23b
000001c0: 8127 43bb be32 8c3c a276 b43a 6010 093d
000001d0: cff9 103c 8b08 ea3b 8754 c93c ade0 a13b
000001e0: c2db e53c c377 4aba fb77 183d 8355 033d
000001f0: ee4b aa3c e646 5a3c a080 c8ba b54d 53bb
0.02563592 -0.0015500775 0.037650574 0.021908147 0.03036841 0.0062263682 0.0051443363 -0.0047226544
0.02264068 0.039709248 -0.0005135745 0.020410085 0.0019739917 0.012021816 0.012897754 0.04001456
0.03175068 0.0011077847 0.005924903 0.061477177 0.023665769 0.0023751429 0.032512188 0.011963171
0.037384495 0.02870438 0.0051577766 0.0029190297 0.020730495 0.028680187 0.03654695 0.03656669
0.0014076144 0.009537563 0.03259766 0.043703433 0.0139454305 -0.0016987782 0.02303906 0.022475276
0.0018408316 0.0015957882 0.013944195 0.0050641536 -0.0029794886 0.00086154265 0.0065589454 0.027913654
0.01702039 0.008033406 0.010014003 0.020634925 0.014083254 0.01772533 0.00853929 0.0121755265
0.025496691 -0.0044322633 0.028806314 0.0058815326 -0.0020202722 0.011709465 -0.0017729072 0.0051279566
0.031294927 0.025874496 -0.00050848996 0.050023835 0.03582198 0.0049305833 0.0102731045 0.0058115236
0.021890916 0.0028156526 0.0053922758 0.025112329 0.04854376 -0.0041011833 0.031958234 0.0044278023
0.018468454 0.0062266565 -0.002591164 0.04465694 0.024644045 0.0049087475 0.022868894 0.0069046277
0.01469383 0.025397839 0.027886067 0.0020221402 -0.0062620747 -0.0009199224 -0.00094935385 0.024616033
-0.004719804 0.032280557 0.012837514 -0.0015892653 0.017451845 0.023726914 0.008229953 0.000990309
0.0058985264 0.057135377 0.011072393 0.010600806 0.044100877 0.013388475 0.01578859 0.0064106984
-0.0029778185 0.01711404 0.0013768265 0.033462882 0.0088486215 0.0071421317 0.024576439 0.0049401135
0.02805889 -0.00077235344 0.037223797 0.032063972 0.02078816 0.013322568 -0.0015297122 -0.0032242362
