implementations/dcgan/models/discriminator_model_0.pth (torch, 434615 bytes, 21 tensors)

model.0.weight f4 [16, 3, 3, 3]
000000 63 65 bf 3c 58 5e 8a bd 95 74 8a bd 39 66 2a be
       0.023363775 -0.06756276 -0.067605175 -0.16640557
000010 69 e2 09 be fe 7e b2 3d 1f 42 6c bb f2 1f ad bd
       -0.13465275 0.08715628 -0.0036050153 -0.08453359
000020 ae 66 6e bd 83 fb ce bc 9e a2 e8 bd ac 8d 1c 3e
       -0.05820339 -0.025266415 -0.11359142 0.15288419
000030 c9 2a f7 bd 32 fa c8 3d 64 94 b4 bd fa 41 13 be
       -0.120687075 0.09813346 -0.08817366 -0.14380637
000040 f5 a6 12 3e a6 3f 00 3e 1e ac f9 bc 93 59 3e 3e
       0.14321502 0.1252428 -0.03047758 0.18588857
000050 3f 02 be 3d 38 b2 54 3c 2e fd c6 bc f6 f3 ff bc
       0.09277772 0.012981944 -0.024290647 -0.03124426
000060 4f e4 d8 3d b3 d0 bd bd fa d8 03 be 7e af c7 bd
       0.105904214 -0.09268322 -0.12875739 -0.09750269
000070 38 e0 22 3d 37 85 1e 3e ac 6b b8 bd 1b 67 0c 3d
       0.039764613 0.15480505 -0.09004912 0.034278017
000080 24 1c 42 3d 05 ec b4 3d bf 79 63 3d d5 47 3f 3e
       0.04739012 0.0883408 0.055536028 0.18679745
000090 cd a1 3e be c6 84 1c 3e 52 55 a2 3d 06 af 0b be
       -0.1861641 0.15285024 0.0792643 -0.13640985
0000a0 66 d9 58 bd e3 ec 2b 3e 91 01 bb 3d 60 5e 40 be
       -0.052941702 0.16789584 0.09131158 -0.18786001
0000b0 4b d8 7a 3d ff 7d 18 be 82 2b 4e bd f0 82 42 3d
       0.06124143 -0.14891814 -0.05033446 0.047488153
0000c0 b3 fc 1b 3d de 85 92 bd ad 6d 1f be b2 4e 1c be
       0.03808279 -0.071544394 -0.15569182 -0.15264395
0000d0 91 04 64 3d 93 cd be bd 90 47 3e 3d 15 c4 92 3c
       0.055668417 -0.09316554 0.046454966 0.017915765
0000e0 7b 76 2e be 8a 88 2c be 76 56 e2 3d d8 6c ce bc
       -0.17037384 -0.1684896 0.11051647 -0.025198385
0000f0 51 bd 21 bc 1b 1c b0 3d 51 c1 ff bd 8d 45 44 be
       -0.009871797 0.08599111 -0.12488044 -0.19167157
000100 a8 e5 0c be 3d 2c 97 3d 09 e1 b2 bd 6d 55 21 3e
       -0.13759482 0.07381485 -0.08734328 0.15755244
000110 78 4e d5 bd e4 b6 c0 3d eb 9a 05 be 59 d9 1b be
       -0.10415357 0.094098836 -0.13047378 -0.1521963
000120 19 a8 cb bd 56 27 22 3e 4a 1a cf 3d 00 0f 38 3d
       -0.099441715 0.15835318 0.10112436 0.04493618
000130 27 95 44 3e 1b 4f 41 3d 2b 78 16 be c4 fd 07 be
       0.19197522 0.04719458 -0.14694278 -0.13280398
000140 de 63 96 bd 46 fd 04 be 6f b3 14 be 3f fc 3e ba
       -0.07343267 -0.12987241 -0.14521573 -0.00072855124
000150 18 b3 3b bd 45 a1 b1 3d 74 54 be bd c6 1d 83 3d
       -0.045825094 0.08673338 -0.09293452 0.06402163
000160 84 76 26 be e9 1f 9a 3c 83 d9 9e bd 7e f5 04 3e
       -0.16256148 0.018814044 -0.07756331 0.12984273
000170 35 8a f0 bc f9 d6 09 be eb 51 09 bc 50 fc 41 3e
       -0.029362777 -0.13460912 -0.008381347 0.18943906
000180 4a 87 28 3e ba df 59 3d 6a a2 2a be a1 cc 9c 3d
       0.16457859 0.053191878 -0.16663519 0.07656217
000190 52 0e 10 be 86 e7 3f be e6 00 d2 bd 63 5f b9 3d
       -0.14067963 -0.18740663 -0.102540776 0.09051397
0001a0 98 98 21 3e 57 49 db 3c cf 82 1d be c1 32 94 bd
       0.15780866 0.02676837 -0.15381931 -0.07236243
0001b0 0c 8c 92 3d 55 7b 10 be 22 35 ab bd e0 72 3e 3e
       0.07155618 -0.14109547 -0.08359744 0.18598509
0001c0 c9 ff ca 3b c7 c3 66 bd 59 b7 ce 3d f1 07 e2 bd
       0.0061950427 -0.05633905 0.100935645 -0.11036671
0001d0 e4 5d 23 3e 7a 93 2e be 6c 8e 06 bc 56 4f f3 bc
       0.15953785 -0.17048445 -0.008212667 -0.029700916
0001e0 68 37 31 3e ed b6 e8 bc 80 66 96 bd 1e e4 bd bd
       0.17306292 -0.028407538 -0.07343769 -0.092720255
0001f0 11 58 2a 3d 42 62 14 3e 8e bf 24 3b 06 53 8a bd
       0.041587893 0.14490607 0.002513859 -0.06754117
000200 69 92 71 3d 83 f8 14 bd 06 f7 06 3e f2 94 f0 bd
       0.05897752 -0.03636981 0.1318017 -0.11747159
000210 c5 0f 41 3d b6 fa 07 3e 20 8c 3d be 30 b6 b5 bd
       0.04713418 0.13279232 -0.18510485 -0.0887264
000220 55 19 e7 3d c2 9b e1 bd 87 bf 23 3e 66 9c 60 3d
       0.112841286 -0.110160366 0.1599103 0.054836653
000230 3d e6 ee bd df 1c 9d bd 9b 2d b0 3d 2b 4d d1 3c
       -0.11665008 -0.07671522 0.086024486 0.025549492
000240 18 86 34 bc 99 98 3a be 77 ba b2 bd 12 4a 15 bd
       -0.011018299 -0.18222274 -0.087269716 -0.036447592
000250 60 d9 cc bd 0c c1 b2 3c f7 0b cd bd 76 79 e6 bc
       -0.100023985 0.021820568 -0.10012048 -0.028134089
000260 d9 3e 2b bd 92 90 6f 3d b8 30 42 be 37 84 3b 3d
       -0.041807983 0.058487482 -0.18963897 0.045780387
000270 be 23 33 3d 9b 99 3a 3e a9 9f 3e bd 0d 11 22 bc
       0.04373526 0.18222658 -0.046538983 -0.009891761
000280 0b 39 6e bd 1d d5 d9 3d 55 19 90 bd 97 e4 e2 3d
       -0.05815987 0.10636351 -0.07036082 0.11078756
000290 6b 89 cb 3d 97 9b dc bd cb ba 36 3d 4e 83 bd 3c
       0.0993832 -0.10771864 0.044611733 0.0231339
0002a0 b2 a0 04 be 5c 18 9b bd 2e f7 f3 3c 97 80 c0 3b
       -0.12951925 -0.075730056 0.02978095 0.005874704
0002b0 a2 f7 29 bd 16 e5 5c 3d 7a b1 9c bc a8 55 bd bd
       -0.041495927 0.05392941 -0.019127596 -0.09244853
0002c0 3d 5e 16 bd 32 1d bd bd 8b d5 a7 bc d6 c4 15 3e
       -0.036710966 -0.09234084 -0.020487567 0.14625868
0002d0 f6 1b 01 3e c3 b0 f4 3d 4d ab 60 bd de 01 c8 bd
       0.12608323 0.11947777 -0.054850865 -0.09765981
0002e0 9e 5e 1a 3e 06 ec eb 3c ad e3 10 bd 0f 93 79 3d
       0.15075156 0.028799068 -0.03537338 0.06093126
0002f0 20 86 00 3e 86 b5 13 be 19 b0 1a 3e f6 27 9e bb
       0.12551165 -0.14424714 0.15106238 -0.004826541
000300 89 bc 3d bd 7e eb c3 3d 62 32 93 3d 7a 2e 4c 3d
       -0.04632238 0.09566401 0.07187344 0.04984901
000310 d9 9f 32 3e 42 a6 0b bd 8b 1d d5 3d d7 78 ee 3d
       0.1744379 -0.034094103 0.104060255 0.11644142
000320 e6 cf 10 3d 72 a0 e4 3d a6 31 ce 3d aa c1 91 bd
       0.035354517 0.11163415 0.100680634 -0.071170166
000330 2c 2e d4 3c ff 1e 2b be 33 44 39 3e 69 1a cc bd
       0.025900923 -0.16711043 0.18092422 -0.09965975
000340 c6 3a 34 3d 6e b7 46 3d 33 d1 15 be 35 b6 0d 3d
       0.044001363 0.048514776 -0.14630584 0.034597594
000350 2f ee 2c be 87 d9 54 3d ec 2b 82 bc af 42 a6 3d
       -0.16887735 0.051965263 -0.015890084 0.08118188
000360 a7 d7 13 be b1 cf 34 be 7c 77 0c be 10 9b 95 bc
       -0.14437734 -0.17657353 -0.13717455 -0.018262416
000370 91 cf 1b 3e 3b fa 06 be 0f ba 30 3e ab bc d1 bd
       0.15215899 -0.13181393 0.17258476 -0.10241064
000380 06 63 01 3d 6e 6b 77 bd 66 42 7a bd 74 b8 e9 bc
       0.031588577 -0.060405187 -0.06109848 -0.028530337
000390 c6 6c af bd c3 e4 08 3e a4 05 92 bc 32 67 94 3d
       -0.08565669 0.13368516 -0.017824955 0.072462454
0003a0 25 ed a4 3d 0e a1 fd 3b 74 ce 98 3c 24 b1 3a 3e
       0.08053044 0.0077401465 0.018653132 0.18231636
0003b0 5c 37 00 3e a9 75 f1 3c dd b4 b2 3d 06 97 16 3e
       0.12521118 0.02947505 0.08725903 0.14706048
0003c0 ff 84 4b 3d 92 98 79 bd 1d 10 ad 3d c1 7e 7a bd
       0.04968738 -0.060936518 0.08450339 -0.06115604
0003d0 f2 bb b9 bd 4b 20 c3 bd 2b 7c 1a 3e 66 9c ba 3d
       -0.09069051 -0.09527644 0.15086429 0.09111862
0003e0 9f 61 3d be 03 9f 7a bd ec 3a a6 3d 3a 50 27 bd
       -0.1849427 -0.0611868 0.08116707 -0.040847994
0003f0 00 35 97 bd 42 44 f7 3d f1 c4 50 3d 4c ce 0c bd
       -0.07383156 0.12073566 0.050969068 -0.034376428

model.0.bias f4 [16]
000000 c6 a1 3e bd 7c 9c 44 bc c2 b0 2a 3e d2 71 c6 bd
       -0.046540998 -0.012000199 0.1666899 -0.09689678
000010 d9 f8 cd 3d 66 ce 19 3e f8 b2 bd 3d 99 5b 06 be
       0.100572295 0.15020141 0.09262651 -0.13120879
000020 97 33 79 bd b8 d1 d3 bd b9 12 37 be 4e 42 41 3e
       -0.060840216 -0.10342735 -0.17878236 0.1887295
000030 2c 3e 14 be 56 75 76 bd 67 4d bb 3d c2 58 d7 ba
       -0.14476842 -0.060170494 0.09145623 -0.001642965

model.3.weight f4 [32, 16, 3, 3]
000000 bd bc 91 bd 7d a9 53 bc 87 10 8e bd e8 84 50 3c
       -0.07116077 -0.012918827 -0.06936746 0.012727
000010 d6 56 14 bd 9d 04 90 3c fd 0d 98 3d 3a 2f 52 3d
       -0.036215626 0.017580325 0.07424543 0.05131457
000020 f4 c1 41 bd f4 10 22 bd a3 ea 67 3d 64 d3 b3 3c
       -0.04730411 -0.03956695 0.05662025 0.021951385
000030 d5 ed 38 3d c2 64 30 3d 43 50 e0 3c 57 6a 2c 3d
       0.04514869 0.04306484 0.027382022 0.0420936
000040 4e 3a 8f 3d 51 87 ef 3c ed f1 b7 bc 98 84 e7 bc
       0.069935426 0.029239329 -0.022454226 -0.028261468
000050 69 14 17 3d 1d d9 80 3d 60 f2 70 bd b8 81 92 3d
       0.0368847 0.06291411 -0.058824897 0.07153648
000060 87 67 aa bb 66 22 6b 3d 32 2e 2f bd 0d 2c e0 3c
       -0.0052003297 0.05740585 -0.042768665 0.027364755
000070 18 8b 07 bc a8 b6 a1 bb 7a b0 91 bd e6 88 36 bd
       -0.008272909 -0.0049351044 -0.07113738 -0.04456415
000080 90 93 5d bd a2 b7 78 3d e5 0b 84 bd ef 1f 99 3d
       -0.054095805 0.060722 -0.06447581 0.07476794
000090 98 ff f8 bc 6a a1 3c 3c 5a be 70 bc 3a 81 80 3d
       -0.030395314 0.0115130935 -0.014693821 0.06274648
0000a0 60 ae 0e 3c 20 fc a0 3c 2f b6 90 3d da a3 92 3d
       0.008708566 0.019651473 0.07065999 0.071601585
0000b0 74 14 7a bd f7 4d 56 bd 8e 37 18 bd d2 f0 31 bd
       -0.061054662 -0.052320447 -0.037162356 -0.043442555
0000c0 c4 59 73 3d 88 4d a2 bc 48 63 da bc 1c a7 70 3d
       0.05941178 -0.01981236 -0.02665867 0.058753118
0000d0 ec 33 2c bd 8d 3e cd bc fb bf bf bb 21 a6 95 3d
       -0.042041704 -0.02505424 -0.0058517433 0.07307077
0000e0 d7 23 87 bd f0 7d 16 3d 3d 0c 8e 3d 0d fb 4e 3d
       -0.06598633 0.036741197 0.06935928 0.05053239
0000f0 56 99 8c bd f9 da a8 bd f5 fd 98 3d 1e d0 9f 39
       -0.06865184 -0.08244891 0.074703135 0.00030481903
000100 b3 ca 22 3d de e0 69 bd ac ef fb bc ba 82 5f bd
       0.03974409 -0.057099216 -0.030753933 -0.05456803
000110 8b 1c 77 3d 8c dd 4b 3d 4d d6 73 3d c5 6b 87 bd
       0.060329955 0.04977183 0.059530545 -0.06612352
000120 5a 8e d3 bc 1f bf 81 3d 8e 57 63 3d 37 75 4f bd
       -0.025824714 0.063352816 0.05550342 -0.050648894
000130 e7 15 06 bd fb 81 f9 3c d0 c1 bb 3b 98 2d a9 bd
       -0.03273573 0.030457487 0.0057298914 -0.082606494
000140 40 9d 6b 3d 00 98 94 bd d8 a5 89 3d cc e6 87 3d
       0.057523012 -0.07255554 0.06721085 0.06635818
000150 5f 40 1f 3d 59 cb 6e bd 32 e9 f3 3c 7c 8d 3f 3d
       0.03887975 -0.058299396 0.029774282 0.04676579
000160 c6 8b 8d bd 42 e4 a2 bd 3d e0 7a 3d 65 e4 9c 3d
       -0.06911425 -0.07953693 0.061249007 0.0766075
000170 55 4a 3e 3d 15 a7 20 3d 05 f7 2b 3a 15 9d 93 3d
       0.046457607 0.03922184 0.0006559941 0.072076954
000180 52 de 69 bd 3b 9e 4d 3d 2c ea 26 bd 6c 59 f2 3c
       -0.057096787 0.05019973 -0.040750667 0.029583655
000190 20 3b 84 bc 16 89 5d bd b2 9d 4d 3c f3 68 a6 bd
       -0.016141474 -0.054085813 0.0125498045 -0.08125486
0001a0 8e 1b a0 bc 8d 31 04 3d bf cf a7 bd f7 3e 33 bd
       -0.01954439 0.032273818 -0.08193921 -0.04376122
0001b0 25 97 a0 3d 51 5b 2e 3d af 88 69 3c ef 78 53 bd
       0.078413285 0.042567555 0.014253779 -0.051629003
0001c0 00 4d 5a 3d cf 07 30 bd ea dd 25 bd ee 98 d8 bc
       0.05329609 -0.042976197 -0.040494837 -0.02644011
0001d0 9c c0 50 3d 67 2e 0f bd 81 b2 9a bd 58 c8 47 bd
       0.050964937 -0.034956362 -0.07553578 -0.048775047
0001e0 e0 d5 14 3d e8 96 f0 3c df 84 9e bd e3 a7 38 bd
       0.03633678 0.029368833 -0.07740187 -0.045081984
0001f0 ec 55 ea bc 9b cd 7f bd d1 00 71 bd e6 db 4e bd
       -0.028605424 -0.06245194 -0.05883867 -0.05050268
000200 94 32 46 bd fa 91 a3 3d 77 0c 1a bd 07 78 40 3d
       -0.04838808 0.07986827 -0.037609544 0.046989467
000210 33 ad d6 3c 8c c5 d5 3b b3 49 0d 3c d5 b0 2c 3b
       0.026205635 0.0065237936 0.008623528 0.0026350517
000220 96 79 7a bd e1 c0 d4 3b ec be 17 3d f1 e2 bd bc
       -0.06115111 0.0064927195 0.03704731 -0.023179503
000230 24 a7 8e 3c 0b 89 27 3c 1f 74 2c bd fa 1a f9 3b
       0.017413683 0.010225545 -0.04210293 0.007602093
000240 7b cf 70 3d 1b 2a 89 3d 01 5e 90 bd 96 86 ec 3b
       0.05879162 0.06697484 -0.0704918 0.0072181923
000250 32 c9 f6 3c 5e 08 fd 3b 8a c2 5b bc bc 25 9b 3d
       0.030125234 0.0077219447 -0.013413081 0.07575557
000260 e3 1b 8d bd 3b db 7d bd 60 c5 99 bd 9d d4 69 3d
       -0.068900846 -0.061976653 -0.075083494 0.05708753
000270 da 0f 38 3c 37 24 e5 3c fe 70 93 3d c1 7d 9c 3d
       0.011234248 0.02797137 0.07199286 0.07641173
000280 4c 96 5b bd 52 52 8c 3d fe 65 69 bd ce 58 47 bc
       -0.05361013 0.06851639 -0.056982033 -0.012167169
000290 60 07 16 bc bc ef 83 3b 5f 96 35 b8 4d 5d 9e bd
       -0.009157032 0.0040263813 -4.3293807e-05 -0.077326395
0002a0 84 63 15 bd b9 46 1d bd 78 4d 61 3d 61 5f 36 bd
       -0.03647186 -0.038397525 0.05500552 -0.044524554
0002b0 f2 f3 2c 3d 15 57 6f bd 5d 90 72 bd 40 3e 82 bd
       0.042224832 -0.058432657 -0.059219707 -0.063595295
0002c0 bf 57 33 3d 3b d2 1d bc 78 05 66 bd f7 45 fd 3c
       0.043784853 -0.009632642 -0.05615756 0.03091715
0002d0 9a 4f 3e 3d 08 27 19 bd 48 10 a4 3d 30 17 47 3d
       0.046462633 -0.03739074 0.08010918 0.048606098
0002e0 ba 54 f4 bc 5e 70 5a bd 59 11 71 bd bb af 5a 3d
       -0.029825557 -0.053329818 -0.058854435 0.053390246
0002f0 a3 0f 9e 3c 0c 0b 34 bd 83 be cf 3c 5b 73 9b bd
       0.019294566 -0.043955848 0.025359398 -0.07590362
000300 34 cd 8c bd 06 10 20 3d 13 d4 72 bd 26 40 65 3d
       -0.06875077 0.03907778 -0.05928428 0.05596938
000310 12 9a 3b 3d 6f 54 7f 3c b5 ad 8f 3d 21 11 50 3d
       0.04580123 0.015584095 0.07015554 0.050797585
000320 ef 83 ff bb e4 76 2d 3d 54 ba 26 bd 9f a6 44 3c
       -0.00779771 0.04234971 -0.04070504 0.012002616
000330 9d e3 a8 3c b6 c2 a6 bd ee a2 01 bd d3 30 2a 3d
       0.020616347 -0.08142607 -0.031649522 0.04155047
000340 fa fa 5d bd 54 31 86 bb f5 b0 d0 bc c3 94 a1 bd
       -0.054194428 -0.004095236 -0.025475005 -0.07889702
000350 1e 06 23 bd c0 2c a3 bd 3c 85 65 3d bd a8 69 bd
       -0.039800756 -0.0796752 0.056035265 -0.057045687
000360 8c db 75 bd 14 fd ce 3b b2 69 b9 3c fb 5e 9e 3d
       -0.06002383 0.0063167904 0.022633407 0.0773296
000370 8c b9 78 bd 85 36 2f 3c dd 67 a3 3c c8 b7 29 3d
       -0.060723826 0.010694151 0.019946987 0.041435033
000380 7a e5 05 bd 48 d1 c1 3c 5e d0 07 3b 72 27 8c 3d
       -0.03268955 0.023659363 0.0020723562 0.06843461
000390 e8 f9 92 3c bd 02 9d bd 49 45 1d bd 4b 56 0d 3d
       0.01794143 -0.07666538 -0.038396154 0.034506124
0003a0 76 67 c5 39 ab 4c e5 ba 11 70 4a bc 7e 5a ef bc
       0.00037651852 -0.0017494162 -0.01235582 -0.029217955
0003b0 3f 20 09 3d 3c bb 2a 3d 60 f2 10 bd 35 1e 60 3d
       0.033478018 0.041682467 -0.035387397 0.054716308
0003c0 a4 5b 38 3d 4d 12 84 3d 0a 9a f5 bc 97 1e 64 3c
       0.04500927 0.06448803 -0.029980678 0.013923309
0003d0 40 e3 33 3d 94 18 df bb 4d c4 5d bd 52 2e 16 bd
       0.043917894 -0.00680835 -0.054142285 -0.03666527
0003e0 9b 11 fb bc 20 62 7a bd ca a5 df bc 5a a1 70 bd
       -0.030648043 -0.061128736 -0.027300734 -0.058747627
0003f0 01 68 9e 3c 4a 66 0c bd 6a 1a 75 bd 18 8c 05 bd
       0.019336702 -0.034277238 -0.059839644 -0.032604307

model.3.bias f4 [32]
000000 45 ef 1e bc c4 9a 6e bc 03 94 35 bd 17 c2 5a 3d
       -0.009700601 -0.014563266 -0.044330608 0.053407755
000010 8c 05 9e 3d f4 d7 3a 3d 6b 9e 8c bd 80 a5 1f bd
       0.07715902 0.045616105 -0.06866153 -0.038976192
000020 48 e5 7b bd 28 2e 91 bd 8d bf f4 bc 3b d0 a8 bd
       -0.061497957 -0.07088882 -0.029876495 -0.08242842
000030 25 ef c8 bc 93 55 0f 3d 09 47 39 3d 98 d4 5a 3d
       -0.024528095 0.03499372 0.04523376 0.0534254
000040 d3 ea 17 3d 68 af a3 bd 56 db fa bc 06 a7 73 bd
       0.03708918 -0.079924405 -0.030622166 -0.059485458
000050 50 e1 a7 bd cf fc 06 bc 2b 1d 8b 3d 70 f3 37 3d
       -0.08197272 -0.008238985 0.06792673 0.044909894
000060 aa 3e ff 3c 34 f4 2d bc ed cd 5a bd 80 40 47 3d
       0.03115781 -0.010617305 -0.053419042 0.048645496
000070 7f 7b 8a 3d cf dc 4c 3b 0e 24 57 bd 5a 0c 80 bd
       0.06761836 0.0031259542 -0.05252462 -0.06252356

model.6.weight f4 [32]
000000 73 f9 7f 3f 47 03 80 3f 72 f9 7f 3f 46 03 80 3f
       0.99990004 1.0001 0.9999 1.0000999
000010 73 f9 7f 3f 72 f9 7f 3f 73 f9 7f 3f 46 03 80 3f
       0.99990004 0.9999 0.99990004 1.0000999
000020 46 03 80 3f 46 03 80 3f 73 f9 7f 3f 45 03 80 3f
       1.0000999 1.0000999 0.99990004 1.0000998
000030 47 03 80 3f 46 03 80 3f 47 03 80 3f 47 03 80 3f
       1.0001 1.0000999 1.0001 1.0001
000040 73 f9 7f 3f 73 f9 7f 3f 72 f9 7f 3f 73 f9 7f 3f
       0.99990004 0.99990004 0.9999 0.99990004
000050 46 03 80 3f 47 03 80 3f 73 f9 7f 3f 47 03 80 3f
       1.0000999 1.0001 0.99990004 1.0001
000060 47 03 80 3f 72 f9 7f 3f 73 f9 7f 3f 47 03 80 3f
       1.0001 0.9999 0.99990004 1.0001
000070 74 f9 7f 3f 73 f9 7f 3f 76 f9 7f 3f 46 03 80 3f
       0.9999001 0.99990004 0.9999002 1.0000999

model.6.bias f4 [32]
000000 6d b6 d1 38 61 b6 d1 b8 15 b4 d1 b8 09 b6 d1 b8
       9.999876e-05 -9.999867e-05 -9.9994395e-05 -9.999803e-05
000010 fe b3 d1 b8 09 b6 d1 b8 01 b6 d1 38 d3 b5 d1 b8
       -9.999423e-05 -9.999803e-05 9.9997975e-05 -9.999764e-05
000020 06 b3 d1 b8 1b b5 d1 38 2a b6 d1 38 52 b6 d1 38
       -9.999242e-05 9.99963e-05 9.999827e-05 9.9998564e-05
000030 31 b4 d1 38 49 b6 d1 38 74 b5 d1 38 6d b4 d1 38
       9.99946e-05 9.99985e-05 9.999695e-05 9.9995035e-05
000040 c4 b5 d1 38 f8 b0 d1 38 0c b6 d1 38 30 b3 d1 b8
       9.999753e-05 9.9988596e-05 9.9998055e-05 -9.999273e-05
000050 64 b6 d1 b8 b8 b5 d1 38 73 b6 d1 38 42 b5 d1 b8
       -9.9998695e-05 9.999744e-05 9.9998804e-05 -9.9996585e-05
000060 d8 b5 d1 38 e5 b5 d1 38 35 b6 d1 38 f5 b5 d1 38
       9.999768e-05 9.999777e-05 9.999835e-05 9.999789e-05
000070 33 b4 d1 b8 a5 b5 d1 b8 52 8d d1 b8 3f a6 d1 b8
       -9.999461e-05 -9.9997305e-05 -9.9922196e-05 -9.996862e-05

model.6.running_mean f4 [32]
000000 20 b7 bb 3a 0e 5c b1 bb ed 7f d3 3a 6b 86 95 3c
       0.0014321543 -0.005412585 0.0016136147 0.018252572
000010 46 d2 87 3c 69 10 fa 3c 92 dc fd ba 59 7f 8b bb
       0.016579758 0.030525403 -0.0019368103 -0.0042571244
000020 f0 d8 1e bb 3d f2 e5 bb 00 5c 8a 3a 60 9f b9 bb
       -0.0024238192 -0.0070174024 0.0010555983 -0.005664751
000030 02 fb 06 bb 6b 84 88 3b 5f b5 60 3b e2 8a 8f 3c
       -0.002059639 0.004166176 0.0034287793 0.01752228
000040 7a 24 96 3c 0c 4a 15 bb fa 2d 37 3a 4e ae ed b9
       0.01832794 -0.002277973 0.0006987747 -0.0004533403
000050 22 0c c6 bb c3 93 cb b9 27 24 3c bb 28 6e d0 3c
       -0.006043927 -0.00038829268 -0.0028708072 0.025443152
000060 46 6c a9 3c 8d 0f 98 3c c5 15 17 3c 55 32 ce 3c
       0.020681512 0.018562103 0.009221499 0.025170485
000070 b6 92 86 3c 9d f5 8f 3b 42 b9 83 bb cd 11 da 3a
       0.01642738 0.004393293 -0.004019887 0.0016637385

model.6.running_var f4 [32]
000000 94 be 3a 3f 6c a5 3a 3f 41 bb 3a 3f 61 df 3a 3f
       0.7294705 0.72908664 0.72941977 0.729971
000010 54 cf 3a 3f 78 f0 3a 3f f2 a3 3a 3f 29 a3 3a 3f
       0.7297261 0.73023176 0.7290641 0.7290521
000020 7b a2 3a 3f 84 a5 3a 3f fa bf 3a 3f 7d a3 3a 3f
       0.72904176 0.72908807 0.72949183 0.72905713
000030 fe a5 3a 3f 37 ad 3a 3f 17 bd 3a 3f 02 d4 3a 3f
       0.72909534 0.72920555 0.7294478 0.7297975
000040 e1 d2 3a 3f 7a a6 3a 3f 09 ac 3a 3f c2 a5 3a 3f
       0.72978026 0.72910273 0.72918755 0.72909176
000050 67 a5 3a 3f 00 a5 3a 3f b3 a7 3a 3f 9c 3b 3b 3f
       0.72908634 0.7290802 0.7291214 0.7313783
000060 c1 09 3b 3f 75 44 3b 3f 05 c3 3a 3f 21 89 3b 3f
       0.7306176 0.7315133 0.72953826 0.7325612
000070 83 c9 3a 3f 19 bf 3a 3f 82 a2 3a 3f 5e b1 3a 3f
       0.7296373 0.7294784 0.7290422 0.7292689

model.7.weight f4 [64, 32, 3, 3]
000000 a7 7b 48 bd 0d a2 78 3c 66 a8 3a 3c 1b b5 12 bd
       -0.04894605 0.015175355 0.011392688 -0.035817247
000010 8b 78 2c bc cc 3c 02 3d 64 9d 35 3d bc 06 45 bd
       -0.010526787 0.03179626 0.044339553 -0.048102126
000020 3a a6 24 bd 2a ac 21 3d de ed 16 bc 15 66 5c bd
       -0.04019759 0.03947083 -0.009211985 -0.05380829
000030 5f 7f 2c bd c1 c2 42 3d 9f e0 26 3d cf 16 32 3c
       -0.042113658 0.047549013 0.04074156 0.010869696
000040 06 62 59 bd 92 63 05 3d 84 a8 27 3c 87 46 5d 3d
       -0.053071998 0.03256566 0.010233048 0.05402234
000050 2a 0f 57 3c e2 18 de bc 7d e2 0c bd ab b5 06 bd
       0.013126174 -0.027111474 -0.034395684 -0.032888096
000060 7d ea 18 3d 90 36 94 bc e8 ff 8a 3b f9 8e 94 3c
       0.037333 -0.018092424 0.004241932 0.01813458
000070 9c 0b f7 3c 20 9f e3 3c 8b fa e6 bc 1e 40 45 3d
       0.030156903 0.027785838 -0.02819564 0.04815685
000080 af f6 16 bd b2 8e 88 bc d1 82 5d bd 76 43 04 3d
       -0.03685635 -0.016669605 -0.054079834 0.0322909
000090 fd 1d 18 3c 35 db cc 3c 12 b3 ff bb 6f b3 1c bc
       0.0092844935 0.02500687 -0.0078033293 -0.009564265
0000a0 1d 42 25 3d cc b6 4f bd c4 33 eb 3c c6 f4 04 bd
       0.040346254 -0.050711438 0.028711207 -0.032459997
0000b0 7c 70 17 bd 0b 6a b1 3b a1 d7 57 3d 07 24 b2 3c
       -0.036972508 0.0054142526 0.052695874 0.021745695
0000c0 df d0 58 bc de 53 89 3c be a8 5d bc ac bf 3b 3d
       -0.0132333925 0.016763624 -0.013529001 0.04583709
0000d0 41 3b bc bb ed cc 63 3d 2f 76 4c bd b2 11 3b 3d
       -0.0057443683 0.055615354 -0.049917396 0.045671172
0000e0 91 2d 98 3a d8 84 39 bd 4d 0f 1a 3d 8f 14 3c 3d
       0.001161026 -0.045292705 0.03761225 0.045918044
0000f0 52 1b 2c bc 0f f6 e1 3c f7 c5 3c 3d 7b 1e 08 bc
       -0.010504561 0.02758315 0.04608723 -0.008308048
000100 b9 51 65 3c 22 9e ca 3c 53 2b 63 bd d7 28 20 3c
       0.013996535 0.024733607 -0.05546124 0.009775362
000110 d7 95 11 3d 57 31 2a 3d 3a 6e 0b 3b 2c 77 21 bd
       0.03554329 0.04155096 0.0021275417 -0.03942029
000120 4a b1 fd bc d2 19 34 bd 7d d1 55 bc 63 e7 09 3d
       -0.030968327 -0.043969937 -0.013050434 0.033667933
000130 ea d6 19 bc cb ba ef bc ba 5f f1 3c 8d 38 b2 3b
       -0.009389618 -0.029263875 0.029464591 0.0054388703
000140 ab 1b 2a bc ea 06 9e bc fb 18 b7 bc a5 4b 62 bd
       -0.010382573 -0.019290406 -0.022350779 -0.05524792
000150 81 14 31 3d 28 0e 26 bd 27 99 25 3d 8b 3d 33 3c
       0.043232445 -0.040540844 0.04042926 0.010939966
000160 e0 0f 83 bc bf df 9b bc 33 7c c9 bc 0c aa ef 3c
       -0.01599878 -0.019027589 -0.024595356 0.02925589
000170 93 1e 48 bc 62 7c 83 3c 09 34 5e bd 59 aa 28 bc
       -0.012214321 0.016050521 -0.054248843 -0.01029452
000180 60 e6 50 3d aa 58 48 3d d7 f5 f9 bc f4 37 2e 3d
       0.051000953 0.04891268 -0.030512733 0.04253383
000190 2c 0c d2 3c 9f a8 56 3d 56 54 30 bd 70 85 69 3d
       0.02564057 0.052406903 -0.04304918 0.05701202
0001a0 ba f5 3a bd 08 c8 3e 3d c3 89 23 bd 58 ff 41 3d
       -0.0456445 0.046577483 -0.0399263 0.047362655
0001b0 bb e3 9d 3c e2 30 9d bc 42 00 35 bc 6d 34 f9 bc
       0.01927363 -0.019188348 -0.011047425 -0.030420506
0001c0 6b 24 5b 3d 55 c9 c3 3c 4a cc 19 bd 08 66 43 3d
       0.053501528 0.023899714 -0.03754834 0.047704726
0001d0 dc 58 42 bd ef 73 8a 3b 99 c6 21 bd b8 30 4b 3d
       -0.047448024 0.004225246 -0.039496038 0.04960701
0001e0 36 eb 62 3d 46 1d 90 3c bd d5 31 3c f3 e6 2f bc
       0.055400096 0.017592084 0.010854182 -0.010736215
0001f0 b2 b9 f4 bc 38 e0 ba 3a 69 ba 92 3c 0f 22 a7 bc
       -0.029873703 0.0014257496 0.017911153 -0.020401983
000200 ba 69 1b bd 33 52 59 3d 8e 0a 4b 3d 39 27 f7 3c
       -0.037942626 0.053056907 0.049570613 0.03017007
000210 cf 77 57 bd 5b b5 aa bc 17 f8 c0 bc 4b 90 08 bd
       -0.052604493 -0.02083843 -0.023555798 -0.033340733
000220 a8 53 1a bc 6c cd 36 bd df 0e 12 bc 1e a3 62 3d
       -0.009419359 -0.0446295 -0.008914678 0.055331342
000230 c8 98 24 3d 1e b4 54 3d 3c 4b 2d 3d 65 4d 23 3c
       0.040184766 0.051929586 0.042308077 0.009967183
000240 4a c0 cc bc 78 7e 3d 3d f2 30 93 bb 4d 52 47 3d
       -0.024994034 0.046263188 -0.0044919187 0.048662473
000250 08 62 64 3c f7 8e fa bc 55 e9 1b 3d 76 f8 c3 bc
       0.013939388 -0.03058575 0.03806432 -0.023922186
000260 0c 67 03 bd ab 0f 53 bd a3 04 48 3d d5 75 96 3a
       -0.032080695 -0.051528614 0.048832547 0.0011479208
000270 6c 45 23 bd 60 2b 16 3c 46 9d d6 bc d3 4e 9f 3b
       -0.039861128 0.009165615 -0.02619804 0.0048616915
000280 ca 54 3b bd e6 ab 41 bd 4a bf 13 bc b8 ea 10 bd
       -0.045735158 -0.047283076 -0.009017775 -0.035380095
000290 68 25 9c b9 59 7e c6 bc 51 f8 81 3b 6d 67 63 bd
       -0.00029782508 -0.02423017 0.003966369 -0.055518556
0002a0 ae 41 3b 3d 01 b3 6b 3d 79 b4 4c bb a3 9b 01 3c
       0.045716934 0.05754376 -0.00312355 0.007910642
0002b0 77 a9 6b 3d df 60 6f 3a 85 59 62 3c c2 e3 c1 bc
       0.05753466 0.00091315614 0.013815288 -0.023668174
0002c0 ac 0e 9d 3c 98 96 a1 3c 5e ad dd 3b 2f bb 1f bd
       0.019172035 0.019725129 0.0067650517 -0.03899687
0002d0 36 2b a5 bc 4a 27 50 bd a4 5c 55 3d 06 2d f3 3c
       -0.020162206 -0.05081872 0.052090302 0.029684555
0002e0 b2 75 70 3c 16 dd 3d bd 0f ff 33 bd 31 52 48 bd
       0.014676498 -0.046353422 -0.043944415 -0.04890651
0002f0 19 3c 6b 3d 2c 7f 85 3c 06 07 92 bc 65 cf 85 3c
       0.05743036 0.016295992 -0.017825615 0.016334245
000300 31 9f 56 3d 3c a5 11 3d d2 69 eb bc ad ea 2c bd
       0.05239791 0.03555797 -0.028736982 -0.04221599
000310 f3 30 30 3d 46 90 11 bd 77 51 0e bd 20 f2 85 3c
       0.04301543 -0.03553798 -0.03474566 0.016350806
000320 58 11 3f 3d 16 30 84 bc 60 3d f2 3c f0 6f 4f 3d
       0.0466474 -0.01613621 0.029570282 0.05064386
000330 4c e0 23 3d 07 5a fe bc b5 3b 7e bb db 9f 5e bd
       0.040008828 -0.031048788 -0.0038792912 -0.05435167
000340 48 d1 03 bd 72 06 4c bc 3d 2d d0 bc 88 f8 25 3c
       -0.032182008 -0.012452709 -0.025412196 0.010130055
000350 0b 08 44 3d 44 47 03 3d 3c f3 9c bb 40 c8 54 3d
       0.047859233 0.032050386 -0.004789738 0.051948786
000360 3c b7 a2 bc 9b 5c fd bc b1 b7 85 3c f4 42 6e 3d
       -0.019862764 -0.030927947 0.016322942 0.05816932
000370 db 7b 74 bb bb 0f 40 3c 42 e1 4c bd 1e 3e 3a bc
       -0.003730527 0.0117225 -0.05001951 -0.011367349
000380 e0 29 3f 3d a4 36 e9 3c d2 6c 3b 3d ff 1d 2d 3d
       0.046670794 0.028468437 0.045758076 0.042264935
000390 75 15 50 bc f3 f1 6b 3d 44 70 6e 3d 35 5c 87 bb
       -0.012700428 0.057603788 0.058212534 -0.004130865
0003a0 3e f5 f4 3a 32 66 66 3d de 7d 17 bd 49 84 ac 3c
       0.001868881 0.056249805 -0.03698527 0.021059172
0003b0 c1 bb 0a bd f7 dd 5f 3c 54 cb 29 bd a3 54 5d 3d
       -0.033870462 0.01366376 -0.041453674 0.054035794
0003c0 fa 22 6c bc 1a 09 1c 3d 02 4c 0d bd 6e 4c 15 3d
       -0.014412636 0.038094617 -0.034496315 0.036449842
0003d0 fe 5b 32 bd 96 f3 b5 3c 80 ac 6d 3d 0c 44 3a bd
       -0.04354476 0.022210877 0.058025837 -0.04547505
0003e0 27 93 02 bd 20 21 5a 3d 48 cd 62 bc 34 c2 1d 3d
       -0.031878617 0.053254247 -0.013842888 0.038515285
0003f0 ef 52 17 3c 82 11 4d 3d 27 c5 6f 3d ab 81 67 3c
       0.0092360815 0.050065525 0.05853763 0.014130036

model.7.bias f4 [64]
000000 c3 1c 62 3c 8e ed e0 bb 68 76 bc bc 60 40 2d 3d
       0.013800803 -0.006864256 -0.02300568 0.04229772
000010 cc d4 9b 3c 6d 52 18 bd 0a 18 27 bd 84 e7 80 bc
       0.019022368 -0.037187982 -0.04079441 -0.015735395
000020 3b 46 e0 bc 6c dd 9b bc d0 68 ca 3c 58 cb 30 bd
       -0.027377238 -0.01902648 0.024708182 -0.043162674
000030 68 9c d8 bc 83 5d a3 bc d2 30 57 3d 5f e0 55 bd
       -0.026441768 -0.01994205 0.052536793 -0.05221593
000040 3f 1a 7d bc be 67 59 3d c1 8c 54 3d ee c7 68 3c
       -0.015448152 0.053077452 0.051892046 0.014207823
000050 31 46 a7 3b b4 86 36 3d fb e4 d4 bc a2 27 e4 bc
       0.005104803 0.044562057 -0.025988093 -0.02785093
000060 72 bf 35 3d 52 72 98 3b 44 cd 27 bd 66 df c6 bb
       0.04437203 0.0046523 -0.04096724 -0.0060691116
000070 1a f3 c1 bc c0 18 71 3d 98 d0 47 bd b7 13 2d 3c
       -0.02367549 0.058861494 -0.048782915 0.010563782
000080 45 ac 41 bd d2 30 3f bd ab 5b 7f bc 5c b3 36 3d
       -0.04728343 -0.046677418 -0.01558582 0.044604644
000090 a7 f3 62 bd d2 93 28 3d f3 c8 ab bc d0 75 c6 3c
       -0.055408146 0.041156597 -0.020969843 0.0242261
0000a0 7d 72 66 bd 10 78 ef 3b 80 7b 67 bc bd e2 b3 bb
       -0.05626153 0.0073080137 -0.014128566 -0.005489676
0000b0 b2 b4 45 3d e1 2e 4d bc 24 3c 6b bc 12 83 3b bd
       0.048268028 -0.012523384 -0.0143576 -0.045779295
0000c0 17 55 9e bc 72 5b e6 3c 0c 56 17 bd ac c9 24 3d
       -0.019327683 0.028119776 -0.036947295 0.04023139
0000d0 20 ae 11 3b 93 70 a2 bc 9c 88 21 3d 28 0d 36 bd
       0.002222903 -0.01982907 0.03943692 -0.04444614
0000e0 20 40 08 bd 3b 3d 64 bd 06 d5 2e 3b 8a 93 15 3d
       -0.03326428 -0.055722456 0.0026677265 0.036517657
0000f0 08 eb 04 3d 5c ba c8 3c fc 17 03 bd 3e 24 8e 3c
       0.032450706 0.024502926 -0.032005295 0.017351266

model.10.weight f4 [64]
000000 74 f9 7f 3f 73 f9 7f 3f 73 f9 7f 3f 47 03 80 3f
       0.9999001 0.99990004 0.99990004 1.0001
000010 72 f9 7f 3f 73 f9 7f 3f 3f 03 80 3f 47 03 80 3f
       0.9999 0.99990004 1.0000991 1.0001
000020 47 03 80 3f 73 f9 7f 3f 46 03 80 3f 41 03 80 3f
       1.0001 0.99990004 1.0000999 1.0000993
000030 76 f9 7f 3f 46 03 80 3f 79 f9 7f 3f 74 f9 7f 3f
       0.9999002 1.0000999 0.9999004 0.9999001
000040 78 f9 7f 3f 75 f9 7f 3f 46 03 80 3f 72 f9 7f 3f
       0.99990034 0.99990016 1.0000999 0.9999
000050 85 f9 7f 3f 73 f9 7f 3f 47 03 80 3f 73 f9 7f 3f
       0.9999011 0.99990004 1.0001 0.99990004
000060 73 f9 7f 3f 73 f9 7f 3f 78 f9 7f 3f 47 03 80 3f
       0.99990004 0.99990004 0.99990034 1.0001
000070 74 f9 7f 3f 72 f9 7f 3f 46 03 80 3f 47 03 80 3f
       0.9999001 0.9999 1.0000999 1.0001
000080 43 03 80 3f 74 f9 7f 3f 47 03 80 3f 73 f9 7f 3f
       1.0000995 0.9999001 1.0001 0.99990004
000090 75 f9 7f 3f 47 03 80 3f 47 03 80 3f 73 f9 7f 3f
       0.99990016 1.0001 1.0001 0.99990004
0000a0 46 03 80 3f 73 f9 7f 3f 46 03 80 3f 73 f9 7f 3f
       1.0000999 0.99990004 1.0000999 0.99990004
0000b0 45 03 80 3f 73 f9 7f 3f 46 03 80 3f 45 03 80 3f
       1.0000998 0.99990004 1.0000999 1.0000998
0000c0 73 f9 7f 3f 47 03 80 3f 42 03 80 3f 47 03 80 3f
       0.99990004 1.0001 1.0000994 1.0001
0000d0 73 f9 7f 3f 44 03 80 3f 47 03 80 3f 46 03 80 3f
       0.99990004 1.0000997 1.0001 1.0000999
0000e0 46 03 80 3f 46 03 80 3f 73 f9 7f 3f 73 f9 7f 3f
       1.0000999 1.0000999 0.99990004 0.99990004
0000f0 47 03 80 3f 73 f9 7f 3f 73 f9 7f 3f 47 03 80 3f
       1.0001 0.99990004 0.99990004 1.0001

model.10.bias f4 [64]
000000 7b b6 d1 b8 b3 b5 d1 b8 ef b3 d1 b8 54 b6 d1 38
       -9.999886e-05 -9.999741e-05 -9.999412e-05 9.999858e-05
000010 6c b3 d1 b8 7a b6 d1 38 f0 b5 d1 b8 32 aa d1 38
       -9.9993165e-05 9.9998855e-05 -9.999785e-05 9.997598e-05
000020 44 b6 d1 b8 76 b6 d1 38 5e b6 d1 38 87 b6 d1 b8
       -9.999846e-05 9.9998826e-05 9.999865e-05 -9.999895e-05
000030 c5 b6 d1 b8 37 b6 d1 38 a2 98 d1 b8 7d b5 d1 b8
       -9.99994e-05 9.999837e-05 -9.994327e-05 -9.9997014e-05
000040 57 b6 d1 38 5b b6 d1 38 a0 b6 d1 b8 01 b2 d1 38
       9.99986e-05 9.999863e-05 -9.999913e-05 9.9990524e-05
000050 e4 b5 d1 38 6c b6 d1 b8 57 b6 d1 b8 cb b3 d1 38
       9.9997764e-05 -9.999875e-05 -9.99986e-05 9.999386e-05
000060 e3 b6 d1 38 d3 b1 d1 b8 97 b6 d1 38 e2 b5 d1 38
       9.999962e-05 -9.999019e-05 9.9999066e-05 9.999775e-05
000070 67 b5 d1 38 6c b4 d1 38 85 b6 d1 b8 02 b6 d1 b8
       9.9996854e-05 9.999503e-05 -9.9998935e-05 -9.999798e-05
000080 26 b6 d1 38 88 b6 d1 38 ba b6 d1 38 ce b3 d1 38
       9.9998244e-05 9.999896e-05 9.999932e-05 9.999388e-05
000090 9a b6 d1 b8 e1 b5 d1 b8 bc b5 d1 38 60 b6 d1 b8
       -9.999909e-05 -9.999774e-05 9.999747e-05 -9.9998666e-05
0000a0 c3 b5 d1 38 84 b6 d1 b8 e9 b5 d1 38 22 b5 d1 38
       9.9997524e-05 -9.999893e-05 9.99978e-05 9.999635e-05
0000b0 ee b5 d1 b8 ba b6 d1 b8 62 b3 d1 b8 89 b6 d1 b8
       -9.999784e-05 -9.999932e-05 -9.999309e-05 -9.9998964e-05
0000c0 e1 a9 d1 b8 31 b6 d1 b8 f1 b5 d1 b8 1c b6 d1 b8
       -9.997539e-05 -9.9998324e-05 -9.999786e-05 -9.999817e-05
0000d0 9d b5 d1 38 c3 b6 d1 38 f4 b5 d1 38 31 b6 d1 b8
       9.999725e-05 9.9999386e-05 9.999788e-05 -9.9998324e-05
0000e0 af b4 d1 38 3b b6 d1 b8 97 b6 d1 b8 aa b6 d1 38
       9.9995515e-05 -9.99984e-05 -9.9999066e-05 9.9999204e-05
0000f0 5f b6 d1 38 99 b5 d1 38 1f b6 d1 38 b1 b6 d1 38
       9.999866e-05 9.999722e-05 9.999819e-05 9.9999255e-05

model.10.running_mean f4 [64]
000000 3c 4b b0 3b b4 bc 58 3a 59 6a b7 b9 23 cb 45 3c
       0.0053800624 0.0008267865 -0.00034983715 0.012072357
000010 1c 20 d0 3b d4 55 c3 ba 89 8e 08 bb aa 47 8f 38
       0.006351484 -0.0014902898 -0.002083691 6.83212e-05
000020 b4 44 23 ba 57 d2 b5 38 89 7f e4 3b 4b 03 e5 ba
       -0.0006228194 8.6699314e-05 0.006973211 -0.0017472295
000030 b9 a6 b2 ba bd fd e7 39 2e 68 73 3c 18 8c 24 bb
       -0.001363001 0.00044248803 0.014856381 -0.0025107916
000040 3c b4 ec 39 86 02 82 3c 38 97 57 3c de f7 90 3b
       0.00045147713 0.015870344 0.013158612 0.0044240793
000050 f8 19 40 3b 54 28 55 3c 6a d7 70 ba 82 41 ac ba
       0.0029312354 0.013010103 -0.00091873726 -0.0013142081
000060 b3 a6 2a 3c 86 4f 4e 3b 69 41 f8 ba 1a c2 ce 3a
       0.010415721 0.0031480505 -0.0018940392 0.00157744
000070 42 7d e5 b8 ff fc 8c 3c fe c8 11 bb 92 65 7e 3b
       -0.00010942902 0.017210482 -0.0022245045 0.0038817865
000080 b4 d4 04 bb 27 20 09 bb cd 1e b7 b9 fe 44 4f 3c
       -0.0020268383 -0.0020923705 -0.00034927428 0.012650726
000090 f6 c2 39 bb 0d 47 1e 3c 44 b7 f8 b9 3a 4c dd 3b
       -0.0028344966 0.0096604945 -0.0004743879 0.0067534717
0000a0 5a 66 1b bb c6 b4 79 3b 83 57 a5 38 1d c5 c5 3a
       -0.002371213 0.0038102134 7.8841134e-05 0.0015088652
0000b0 45 63 47 3c 7d e9 31 3a 76 cb bb 39 a7 c8 14 bb
       0.012169664 0.00067868066 0.0003581901 -0.0022702606
0000c0 f0 59 30 39 b5 44 10 3c 5f 60 f6 ba ff 6c 2f 3c
       0.00016818172 0.0088054435 -0.0018797031 0.010707139
0000d0 2a 9c 69 3b d7 e4 0f b9 53 c4 2c 3c a2 cd 01 bb
       0.003564606 -0.00013722792 0.010544854 -0.0019806405
0000e0 0d 38 dd ba 6a ef 49 bb 8a ff 53 3b 95 52 49 3c
       -0.0016877666 -0.0030812868 0.0032348358 0.0122877555
0000f0 6a e5 1c 3c 4e 9d 05 3c 1e 7d a8 ba 6d e5 c8 3b
       0.009576181 0.00815518 -0.0012854671 0.0061308653

model.10.running_var f4 [64]
000000 9a b8 3a 3f 4c a6 3a 3f ae a3 3a 3f cc c3 3a 3f
       0.7293793 0.7291 0.72906005 0.7295501
000010 de b0 3a 3f 5c a3 3a 3f 0a a1 3a 3f c3 a3 3a 3f
       0.7292613 0.72905517 0.72901976 0.7290613
000020 b8 a7 3a 3f 48 aa 3a 3f 49 b4 3a 3f 40 a2 3a 3f
       0.7291217 0.7291608 0.72931343 0.72903824
000030 2f a1 3a 3f 33 ac 3a 3f 66 ba 3a 3f f5 a0 3a 3f
       0.72902197 0.72919005 0.7294067 0.7290185
000040 50 a5 3a 3f a1 c2 3a 3f 44 c3 3a 3f b6 aa 3a 3f
       0.72908497 0.7295323 0.729542 0.72916734
000050 35 ab 3a 3f 50 ba 3a 3f 4d a3 3a 3f 92 a1 3a 3f
       0.7291749 0.7294054 0.7290543 0.72902787
000060 49 b9 3a 3f 11 a8 3a 3f a5 a1 3a 3f a3 a8 3a 3f
       0.7293897 0.729127 0.729029 0.7291357
000070 fb a4 3a 3f 48 d5 3a 3f 85 a2 3a 3f 4e ac 3a 3f
       0.7290799 0.7298169 0.72904235 0.72919166
000080 aa a2 3a 3f 21 a1 3a 3f 04 a2 3a 3f 37 ba 3a 3f
       0.72904456 0.72902113 0.72903466 0.7294039
000090 7e a1 3a 3f 26 b8 3a 3f e3 a2 3a 3f 1f b1 3a 3f
       0.7290267 0.7293724 0.72904795 0.72926515
0000a0 46 a8 3a 3f fd ac 3a 3f f0 a3 3a 3f 8a a9 3a 3f
       0.72913015 0.7292021 0.729064 0.72914946
0000b0 50 bc 3a 3f db a5 3a 3f 58 a6 3a 3f 29 a2 3a 3f
       0.7294359 0.72909325 0.7291007 0.72903687
0000c0 33 a5 3a 3f 37 b5 3a 3f a4 a1 3a 3f 3c bf 3a 3f
       0.72908324 0.7293276 0.72902894 0.7294805
0000d0 94 b5 3a 3f 04 a8 3a 3f 45 b4 3a 3f 33 a5 3a 3f
       0.72933316 0.7291262 0.7293132 0.72908324
0000e0 3e a2 3a 3f 7c a2 3a 3f c8 a9 3a 3f 9e d7 3a 3f
       0.7290381 0.7290418 0.72915316 0.72985256
0000f0 aa ad 3a 3f 8b b1 3a 3f 13 a3 3a 3f e5 b4 3a 3f
       0.7292124 0.7292716 0.7290508 0.72932273

model.11.weight f4 [128, 64, 3, 3]
000000 19 63 85 3b 54 8d 26 3d db a2 12 bc af f8 27 bd
       0.0040706513 0.040662125 -0.008949961 -0.041008648
000010 d5 a0 98 bc 03 ad 40 3b 97 c6 bf bc d7 63 ed bc
       -0.018631378 0.0029399998 -0.023410125 -0.028978271
000020 5f 1a 72 3c f1 6b e1 3c b8 f0 e0 3a 09 26 d6 bc
       0.014776795 0.02751729 0.0017161584 -0.026141183
000030 93 27 d3 3c f2 e4 00 3d 16 fa 2a 3c f0 03 38 3c
       0.025775706 0.03146834 0.010435602 0.0112314075
000040 b1 56 ce ba e4 0f e6 bc 71 52 d2 3b d9 18 52 3c
       -0.0015742389 -0.02808375 0.006418519 0.012823307
000050 67 05 45 3c 23 95 04 3c 3b 90 9e 3b ee fb 8c bc
       0.012025214 0.008092198 0.004838971 -0.017209973
000060 5a 96 06 3d 69 8e ac 3b b1 a3 65 bb 1c 7a 23 3d
       0.03285823 0.005266 -0.0035040195 0.039911374
000070 27 61 f3 3c c2 54 14 3d 11 01 d1 bc ec 3f c8 3c
       0.029709412 0.036213644 -0.025513204 0.024444543
000080 8a 90 ea bb ad dd 15 3d ae 76 9a bc 1e 24 5c 3c
       -0.0071583437 0.03658836 -0.018855419 0.013436345
000090 ad 36 29 bd c4 5c 0c bd cf 24 af 3c 74 1c fd 3b
       -0.04131191 -0.034268156 0.021379856 0.007724339
0000a0 83 3b 9c 3c 9b 1f 1a bd bc a5 7d 3c a3 f6 b6 3c
       0.019071346 -0.037627798 0.015481409 0.022334402
0000b0 51 ff 4b bc 28 28 ae bb c7 fc 81 3c 82 db 02 bd
       -0.012451009 -0.0053148456 0.015867604 -0.03194762
0000c0 a9 d0 d1 bc 70 71 b3 bb a1 04 01 bc 8b 55 00 3d
       -0.025612192 -0.0054761693 -0.007874639 0.03133158
0000d0 b8 35 83 bc 2c 29 1b bd 29 82 a6 3c 0e 2f 7c bb
       -0.016016826 -0.03788106 0.020325737 -0.0038480195
0000e0 76 2a 31 bc 95 50 1b bd 96 81 91 3c 0b 24 7d 3c
       -0.010813346 -0.037918646 0.017761987 0.015450488
0000f0 ac f4 45 bc 5d 91 da 3c 65 85 82 bc 32 ed 24 bd
       -0.01208226 0.026680643 -0.015932748 -0.04026527
000100 fa 0f 1e bd 2c b7 1f bd 2d f4 b2 bc 42 9b f3 3c
       -0.038589455 -0.038993046 -0.021844948 0.029737119
000110 2c 50 9c bb 82 e0 75 3c b2 75 27 3d 45 31 d5 bc
       -0.0047702994 0.01500714 0.040883727 -0.02602447
000120 92 0d 17 3d 90 0e b5 bc 8a 1e 8d bb 7b 4a 33 3c
       0.036878176 -0.02210167 -0.004306619 0.0109430505
000130 17 0b ee 3c a9 0d 0a 3d 7d c3 ab bb 44 21 14 bc
       0.029058022 0.033704434 -0.00524181 -0.009041134
000140 7d c2 28 bd 6c aa d8 3a 92 38 8a 3b 33 45 20 3d
       -0.041201103 0.0016530282 0.0042181695 0.039128494
000150 72 d5 52 bb dc e2 10 bd fb 9d bc bc 83 1a 90 bc
       -0.003217068 -0.0353726 -0.02302455 -0.017590767
000160 69 98 7c 3c 42 4a eb 3c 1c fe 1a 3d 58 e1 ff 3c
       0.015417197 0.028721932 0.037839994 0.031235382
000170 88 d5 f8 bc d8 cd 29 3d 7c a5 e5 bc 7b 39 08 3c
       -0.030375257 0.041456074 -0.02803301 0.008314486
000180 3e 28 df b9 24 85 7e 3c f7 bf a2 3c eb eb 19 bd
       -0.00042563857 0.015534673 0.019866927 -0.037578505
000190 7b bd fd bb 22 3f 19 3d 00 37 cf 3b d5 49 0a bc
       -0.007743535 0.037413724 0.006323695 -0.0084404545
0001a0 62 9b 74 3c cc 89 be 3c a5 8d f4 bb bb c8 01 3d
       0.014929624 0.023259066 -0.0074631744 0.031685572
0001b0 c1 5e 21 bd 2f 6e ae 3c 2d cc d4 bc d7 d3 5a bc
       -0.039397005 0.021292774 -0.025976265 -0.013356171
0001c0 4a 7e d0 3b b6 22 fd bc 57 a3 0d 3d 2d fe e8 3c
       0.006362711 -0.03090034 0.0345796 0.028441513
0001d0 c6 d9 f4 bb 07 61 55 bc c6 9e bc 3c 92 19 36 3c
       -0.0074722497 -0.013023621 0.023024928 0.011114495
0001e0 8e f3 e7 bc ab c2 8b 3c 99 48 d9 3b 48 da 18 3d
       -0.028314378 0.017060598 0.006630969 0.037317544
0001f0 66 a5 1d 3d f8 36 73 bc 58 46 27 3c 8d 57 d8 3c
       0.038487814 -0.014844649 0.010209642 0.026408935
000200 98 60 0e bd d2 f0 05 3c f3 01 39 bc 7c 11 ae 3c
       -0.034760088 0.008175092 -0.011291969 0.021248572
000210 a2 34 d5 ba 69 b3 04 3d 38 b6 f7 3c b4 63 e1 bc
       -0.0016266296 0.03239766 0.030238256 -0.027513362
000220 09 da 25 3d da 1a 2a bd 60 01 13 3b 71 c8 9a 3c
       0.040491138 -0.041529514 0.002243124 0.018894406
000230 5a 54 ef 3c a5 d3 f9 3b 3e 53 9c bc b8 cc d1 3c
       0.029215027 0.007624107 -0.019082662 0.025610313
000240 b5 b1 7f bc 60 30 9f bc 99 a5 e8 bc 82 87 16 3d
       -0.0156063335 -0.019432247 -0.028399276 0.036750324
000250 ea 11 0d 3d 18 e2 b6 3c da 18 2a bd 83 8c e8 3c
       0.034440912 0.022324607 -0.041527607 0.028387314
000260 d2 0b a2 3b 33 de 2b bc 37 d4 16 3d e5 cd b7 bb
       0.0049452567 -0.010489988 0.036823478 -0.0056092613
000270 0b ce 23 3d ca 10 26 3d 99 92 18 bd 31 da 26 3d
       0.03999142 0.040543355 -0.03724918 0.040735427
000280 4a ea 4a 3b 56 1e 07 3d 30 74 bf bc 64 07 0e bd
       0.00309624 0.032987915 -0.023370832 -0.034675017
000290 31 93 b3 bc a3 7f a4 bc a4 2d e6 3c 18 17 24 bd
       -0.021920772 -0.020080393 0.028097935 -0.040061086
0002a0 31 7e ab 3b 31 94 be bc e6 e8 19 ba 93 fe f1 bc
       0.005233549 -0.023264023 -0.00058711914 -0.029540336
0002b0 db 75 80 3c b6 05 2c 3c 46 8d 51 3a ab f4 b7 3c
       0.015681198 0.0104994085 0.00079937687 0.022455534
0002c0 b3 fc b4 3c e7 72 57 bc cd 62 0a 3d 11 a0 9f 3a
       0.022093153 -0.013149953 0.03378563 0.0012178441
0002d0 f9 8b b9 3c ab d6 e9 bc b8 69 50 bb 84 77 a2 bc
       0.022649752 -0.028544744 -0.0031801295 -0.01983238
0002e0 73 c6 7a 3c e7 ea be bc 71 2c 8e bc 82 76 45 bc
       0.015306103 -0.02330537 -0.017355176 -0.01205218
0002f0 8a 07 11 3c 9b 3c c5 bb 11 32 09 3c 0e d4 f1 3a
       0.008851895 -0.0060191876 0.008373753 0.0018450038
000300 f5 80 c6 bb d0 64 a6 bc 52 e6 2c bc f0 15 51 3b
       -0.0060578533 -0.020311743 -0.0105529595 0.0031903945
000310 68 04 bc 3c 47 08 9b bc 86 5f 1a bd 20 28 1c bb
       0.02295132 -0.018924845 -0.037688754 -0.0023827627
000320 34 c4 1a bd e5 99 09 bd a1 f9 f0 bc 9a f7 23 bc
       -0.03778477 -0.03359403 -0.029415907 -0.010007763
000330 fb 3e 0f 3d 2d 9c 8b 3a 83 66 9f bc b3 00 68 bc
       0.034972172 0.0010651402 -0.019458061 -0.014160323
000340 f9 3c 19 bd 20 15 d7 3c c4 d1 45 3b e5 5f ed 3c
       -0.037411664 0.02625519 0.0030184845 0.02897639
000350 dc cf 4d 3c a7 70 15 bd a0 ea 02 3d 26 43 ab bc
       0.012561765 -0.036484387 0.031962037 -0.020906042
000360 4b a3 d5 bc e0 0d 21 bd 83 d9 af bc 72 bf 3a bc
       -0.02607884 -0.039319873 -0.021466022 -0.011398183
000370 5d f3 b0 bc 93 0a bd 3c 1e 1a 0e bd 0e 45 6d bc
       -0.02160042 0.023076331 -0.034692876 -0.014481796
000380 e8 54 1e 3d 09 02 22 bd 25 81 b1 bc 13 4d 18 bc
       0.03865519 -0.039552722 -0.021668026 -0.00929572
000390 31 a7 41 3c 3b 55 1d 3d 23 ed 1a bc b5 8d 7d bc
       0.011819647 0.03841136 -0.009455952 -0.01547568
0003a0 71 cf bb bc ab c0 f6 bb bd 53 0e bd 81 fc 9b bc
       -0.022926064 -0.007530292 -0.034747828 -0.019041302
0003b0 0e 93 71 3c 0a 84 0d 3d b1 e5 1c 3d 45 e9 00 3d
       0.014744533 0.03454975 0.03830499 0.031472463
0003c0 34 9f 53 3c ac 40 e9 3c e7 a9 90 bb 08 ff c4 3c
       0.012916375 0.02847322 -0.004414785 0.02404739
0003d0 95 8f ab bb 79 b6 f3 bb e0 49 1f bc 1c 3d 1a 3c
       -0.005235622 -0.007437524 -0.009722203 0.009413984
0003e0 80 c0 12 bd f4 86 d7 bc 29 05 ff bb 76 ea 23 3d
       -0.035828114 -0.026309468 -0.0077825976 0.04001852
0003f0 3c 99 04 bc 8c 65 13 3c 50 44 6b bb 92 4a 1e 3d
       -0.008093175 0.008996379 -0.0035898872 0.038645335

model.11.bias f4 [128]
000000 8f 72 9c bb ed 4e 12 bd 90 a4 07 3d 97 de c9 3c
       -0.0047743986 -0.0357198 0.033115923 0.024642272
000010 92 44 ce 3c d2 04 00 bd 10 3e a5 bb 28 62 c4 bc
       0.025179181 -0.031254597 -0.005042799 -0.023972586
000020 53 76 52 38 57 a2 40 3c 81 e9 18 bd 89 ec a3 3c
       5.01781e-05 0.011757455 -0.03733206 0.02001025
000030 cd bc 9c bc 8c 2f 6c 3c 91 33 0c 3c 0f 20 a8 3c
       -0.019132996 0.014415633 0.008557216 0.0205231
000040 ac 31 f1 3c 6d a6 e3 bc f9 90 82 3b c1 ef 21 3d
       0.02944263 -0.027789319 0.0039845672 0.039535288
000050 9a 50 60 bc da f6 f9 bc c0 ab 70 3b a0 eb d7 3b
       -0.013691092 -0.030513216 0.0036723465 0.006589368
000060 c6 c5 26 3c a5 43 bc 3c f9 d2 04 bd 13 db 33 bc
       0.010178989 0.022981474 -0.03242776 -0.010977524
000070 e9 99 61 bc 2f 87 73 bc 61 28 d8 ba 82 f4 e5 3b
       -0.013769605 -0.014863773 -0.0016491526 0.007017673
000080 b1 dd 14 bd 6a 14 47 3c 14 ab ae 3c 6b 3b 1c 3d
       -0.036344234 0.012150863 0.02132181 0.038142603
000090 e8 d8 5c 3c 50 a4 12 bd 5d f9 27 3c 1c 3b b4 3c
       0.013479449 -0.03580123 0.010252324 0.022000842
0000a0 b4 6a ca bc 1b 7b 3d bc f6 17 49 bb 3d 46 1c bc
       -0.024709083 -0.011564995 -0.0030684448 -0.0095382305
0000b0 1c 3a 14 bd a8 d4 82 bc e9 17 29 bd 1c 8a d0 3c
       -0.03618823 -0.015970543 -0.041282568 0.02545648
0000c0 4f f8 c0 3c 18 6d 4c 3b e6 46 d1 3b 6f c5 51 3c
       0.023555903 0.0031192955 0.0063866256 0.0128034195
0000d0 7d 4c f8 bb f2 89 a2 3b ec 98 1b 3b f8 49 53 3c
       -0.0075774775 0.004960292 0.0023742272 0.0128960535
0000e0 7c 67 5a 3b 54 d8 24 bd 9c 4c b3 3c 0d 40 72 bb
       0.0033325842 -0.04024537 0.021887116 -0.0036964447
0000f0 1d 89 a3 bc 9d 62 a9 bb 12 63 c5 bc f1 bc c9 bc
       -0.019962842 -0.0051692263 -0.024095092 -0.024626227
000100 e8 9a e1 3c 9b 7f b8 3c 2e 4a 70 bc 37 76 29 3d
       0.027539685 0.022521785 -0.014666123 0.041372504
000110 4c 72 13 3d f3 2d 69 bc 3e aa 08 bc dd b8 b4 bc
       0.035997674 -0.014232147 -0.00834137 -0.022060806
000120 5b 31 b9 3c 70 83 1f bd a7 0b c5 bb aa b0 07 3d
       0.022606542 -0.038943708 -0.006013352 0.033127464
000130 fc ab 04 3d 1e ab 24 bd 58 fc db 3c 15 75 ab bc
       0.03239058 -0.040202253 0.026853725 -0.020929853
000140 b4 7f d7 3c 71 f2 1b bc 8d d4 95 bc 0b 72 20 bc
       0.02630601 -0.009518252 -0.018289829 -0.009792815
000150 9c 12 d1 3c 10 40 61 bc c7 a8 e3 3c 36 30 d9 bb
       0.025521569 -0.013748184 0.02779044 -0.0066280616
000160 27 86 3d bb 51 40 d0 3c 2a 24 41 ba 67 de bf bc
       -0.0028919072 0.025421293 -0.00073677546 -0.02342148
000170 f1 e5 0c bd 64 fe 29 bd 4b 1a c0 bc c1 77 08 3d
       -0.034398977 -0.04150237 -0.023450037 0.03331733
000180 16 b8 1a bd fb 2d be 3b 79 be 48 bb 58 14 22 bd
       -0.037773214 0.005803821 -0.0030631109 -0.039570183
000190 6a 17 97 3c a9 62 b1 3c 05 a2 d4 3b 6d 3b 86 bc
       0.018443782 0.02165349 0.006489041 -0.016385758
0001a0 eb 95 4b bc d0 ce 21 3d b8 47 53 3c b2 bf dc bb
       -0.01242588 0.039503872 0.012895517 -0.006736719
0001b0 c3 36 1d 3d f2 62 82 3b be 70 69 bb ee 1c 80 bb
       0.038382303 0.0039790804 -0.0035620178 -0.0039096987
0001c0 fd 30 5a bc b9 16 2f 3c 04 d9 a5 bc 94 f9 c8 3c
       -0.013317344 0.01068657 -0.020245083 0.02453307
0001d0 f2 5f 09 bc 38 2a 22 bc 14 64 35 3c fe ae 69 bc
       -0.008384692 -0.009897761 0.011071224 -0.014262913
0001e0 9c 1c a8 bc 18 2a c6 bc 98 e1 c9 3c 75 60 dd bc
       -0.020521455 -0.024189994 0.024643704 -0.027023533
0001f0 ae 04 1a 3d 77 4e ee bc 29 05 23 bd 37 78 1d bd
       0.03760212 -0.02909015 -0.039799843 -0.038444724

model.14.weight f4 [128]
000000 46 03 80 3f 47 03 80 3f 47 03 80 3f 47 03 80 3f
       1.0000999 1.0001 1.0001 1.0001
000010 75 f9 7f 3f 45 03 80 3f 46 03 80 3f 47 03 80 3f
       0.99990016 1.0000998 1.0000999 1.0001
000020 73 f9 7f 3f 73 f9 7f 3f 46 03 80 3f 73 f9 7f 3f
       0.99990004 0.99990004 1.0000999 0.99990004
000030 47 03 80 3f 46 03 80 3f 73 f9 7f 3f 73 f9 7f 3f
       1.0001 1.0000999 0.99990004 0.99990004
000040 73 f9 7f 3f 2f 03 80 3f 73 f9 7f 3f 73 f9 7f 3f
       0.99990004 1.0000972 0.99990004 0.99990004
000050 45 03 80 3f 46 03 80 3f 75 f9 7f 3f 46 03 80 3f
       1.0000998 1.0000999 0.99990016 1.0000999
000060 73 f9 7f 3f 7a f9 7f 3f 46 03 80 3f 73 f9 7f 3f
       0.99990004 0.99990046 1.0000999 0.99990004
000070 73 f9 7f 3f 43 03 80 3f 76 f9 7f 3f 46 03 80 3f
       0.99990004 1.0000995 0.9999002 1.0000999
000080 8b f9 7f 3f 73 f9 7f 3f 7c f9 7f 3f 41 03 80 3f
       0.9999015 0.99990004 0.9999006 1.0000993
000090 73 f9 7f 3f 46 03 80 3f 73 f9 7f 3f 47 03 80 3f
       0.99990004 1.0000999 0.99990004 1.0001
0000a0 81 f9 7f 3f 73 f9 7f 3f 73 f9 7f 3f 73 f9 7f 3f
       0.9999009 0.99990004 0.99990004 0.99990004
0000b0 73 f9 7f 3f 46 03 80 3f 7c f9 7f 3f 72 f9 7f 3f
       0.99990004 1.0000999 0.9999006 0.9999
0000c0 73 f9 7f 3f 73 f9 7f 3f 75 f9 7f 3f 73 f9 7f 3f
       0.99990004 0.99990004 0.99990016 0.99990004
0000d0 73 f9 7f 3f 47 03 80 3f 73 f9 7f 3f 46 03 80 3f
       0.99990004 1.0001 0.99990004 1.0000999
0000e0 74 f9 7f 3f 46 03 80 3f 46 03 80 3f 72 f9 7f 3f
       0.9999001 1.0000999 1.0000999 0.9999
0000f0 76 f9 7f 3f 73 f9 7f 3f 73 f9 7f 3f 47 03 80 3f
       0.9999002 0.99990004 0.99990004 1.0001
000100 39 03 80 3f 47 03 80 3f 75 f9 7f 3f 73 f9 7f 3f
       1.0000983 1.0001 0.99990016 0.99990004
000110 74 f9 7f 3f 46 03 80 3f 47 03 80 3f 89 f9 7f 3f
       0.9999001 1.0000999 1.0001 0.99990135
000120 73 f9 7f 3f 76 f9 7f 3f 47 03 80 3f 73 f9 7f 3f
       0.99990004 0.9999002 1.0001 0.99990004
000130 73 f9 7f 3f 46 03 80 3f 47 03 80 3f 94 f9 7f 3f
       0.99990004 1.0000999 1.0001 0.999902
000140 47 03 80 3f 46 03 80 3f 46 03 80 3f 73 f9 7f 3f
       1.0001 1.0000999 1.0000999 0.99990004
000150 74 f9 7f 3f 46 03 80 3f 46 03 80 3f 73 f9 7f 3f
       0.9999001 1.0000999 1.0000999 0.99990004
000160 73 f9 7f 3f 72 f9 7f 3f 46 03 80 3f 73 f9 7f 3f
       0.99990004 0.9999 1.0000999 0.99990004
000170 45 03 80 3f 74 f9 7f 3f 73 f9 7f 3f 46 03 80 3f
       1.0000998 0.9999001 0.99990004 1.0000999
000180 73 f9 7f 3f 47 03 80 3f 46 03 80 3f 46 03 80 3f
       0.99990004 1.0001 1.0000999 1.0000999
000190 47 03 80 3f 47 03 80 3f 47 03 80 3f 76 f9 7f 3f
       1.0001 1.0001 1.0001 0.9999002
0001a0 75 f9 7f 3f 46 03 80 3f 73 f9 7f 3f 46 03 80 3f
       0.99990016 1.0000999 0.99990004 1.0000999
0001b0 47 03 80 3f 45 03 80 3f 47 03 80 3f 46 03 80 3f
       1.0001 1.0000998 1.0001 1.0000999
0001c0 46 03 80 3f 73 f9 7f 3f 73 f9 7f 3f 73 f9 7f 3f
       1.0000999 0.99990004 0.99990004 0.99990004
0001d0 47 03 80 3f 73 f9 7f 3f 78 f9 7f 3f 74 f9 7f 3f
       1.0001 0.99990004 0.99990034 0.9999001
0001e0 47 03 80 3f 46 03 80 3f 47 03 80 3f 45 03 80 3f
       1.0001 1.0000999 1.0001 1.0000998
0001f0 73 f9 7f 3f 46 03 80 3f 46 03 80 3f 73 f9 7f 3f
       0.99990004 1.0000999 1.0000999 0.99990004
