implementations/dcgan/models/discriminator_model_2.pth (torch, 403895 bytes, 21 tensors)

model.0.weight f4 [16, 3, 3, 3]
0	0xbd9080f0	-0.07055843
1	0xbe157bc9	-0.14598002
2	0xbdd4a9ea	-0.10383971
3	0x3d5c3152	0.053757973
4	0xbc84eff0	-0.016227692
5	0x3e2ab232	0.16669539
6	0xbdfd7a87	-0.12376886
7	0x3d524bd0	0.05134183
8	0xbe36e2f6	-0.17860016
9	0xbdcee675	-0.1010255
10	0x3c01c69d	0.007920888
11	0xbe0a3fb8	-0.1350087
12	0xbcac5ff5	-0.02104185
13	0x3e12abf7	0.14323412
14	0xbe4899de	-0.19589946
15	0xbdea791b	-0.1144888
16	0x3e21b2f6	0.15790924
17	0x3d8ea641	0.06965304
18	0xbdaa42dc	-0.08313534
19	0xbdd3c47a	-0.10340209
20	0x3e18562c	0.14876622
21	0xbd9788ce	-0.0739914
22	0x3dcfcde4	0.101466924
23	0x3dfd8990	0.123797536
24	0xbe2eb319	-0.17060508
25	0x38fcbe46	0.000120517376
26	0xbdc3b999	-0.09556884
27	0xbdc7e0ba	-0.0975966
28	0xbe0f64c1	-0.14003278
29	0x3e07f698	0.13277662
30	0xbdde2be0	-0.10848212
31	0x3d7f0ddf	0.062269088
32	0xbdad975b	-0.084761344
33	0x3c8b3bdb	0.016996315
34	0x3ddb9f4d	0.107237436
35	0x3e0fefe3	0.14056353
36	0xbe0678c3	-0.13132004
37	0xbdb0fa9f	-0.08641552
38	0xbe1e63d6	-0.15467772
39	0xbe2f4e40	-0.17119694
40	0xbe28f784	-0.1650067
41	0x3dccf7fd	0.100082375
42	0xbe244607	-0.16042338
43	0xbc799056	-0.015232166
44	0x3d708e8a	0.058729686
45	0xbdc70159	-0.09717054
46	0xbe361b24	-0.17783791
47	0xbe21ea2e	-0.15811989
48	0x3d8159d7	0.06315964
49	0x3e4d0755	0.20022328
50	0x3e1f5c29	0.155625
51	0x3dd3b9c1	0.10338164
52	0xbd958e0c	-0.07302484
53	0x3dae1cec	0.0850161
54	0x3d7622df	0.06009185
55	0x3e335c59	0.17515697
56	0x3dd64f48	0.104643404
57	0x3ddb7fff	0.10717773
58	0x3e2a8a73	0.16654377
59	0xbd79cf99	-0.060988996
60	0xbe07cbbb	-0.13261311
61	0x3e0b6267	0.13611756
62	0xbe2da96d	-0.16959162
63	0x3d674fa6	0.056472443
64	0x3d27ad5a	0.040936805
65	0xbdc2725c	-0.094944686
66	0x3bddf97c	0.0067741256
67	0xbe2fa122	-0.17151311
68	0xbd213cbf	-0.039364573
69	0x3dfb1aad	0.122609474
70	0x3d9e47d5	0.077285446
71	0x3e3568a9	0.17715706
72	0x3c03f505	0.008054023
73	0x3dfbf537	0.123026304
74	0xbc8f8de2	-0.01752371
75	0xbdee667f	-0.11640643
76	0x3da90696	0.08253209
77	0x3d8a96ba	0.0676703
78	0x3cc0af9c	0.023521237
79	0x3dda734e	0.10666524
80	0x3d65a765	0.056067843
81	0x3c69c7ba	0.01426881
82	0xbe422454	-0.1895917
83	0xbe3672df	-0.17817257
84	0x3e2b115d	0.16705842
85	0x3d0de571	0.03464264
86	0x3d04066c	0.032232687
87	0xbd919fcc	-0.07110557
88	0xbcf869ae	-0.03032383
89	0xbd9932a2	-0.074803606
90	0xbe00a492	-0.12562779
91	0xbc34a806	-0.011026388
92	0xbe0721c6	-0.13196477
93	0x3e384acf	0.17997287
94	0x3d09d526	0.03365054
95	0xbde854ec	-0.113443226
96	0xbe0aae18	-0.13542974
97	0xbdc64118	-0.096803844
98	0xbd3f6df1	-0.046735708
99	0x3e2700e4	0.16308933
100	0xbe11410d	-0.14184971
101	0x3ca24fcd	0.019813443
102	0x3dacc048	0.08435112
103	0xbd21f266	-0.03953781
104	0x3de4c167	0.11169701
105	0xbe24e8ca	-0.16104427
106	0x3e096ee7	0.13421212
107	0x3e025c76	0.12730584
108	0xbe245adc	-0.16050285
109	0xbe01cc97	-0.12675701
110	0xbc775d14	-0.015097875
111	0x3e4076e1	0.18795349
112	0x3e1c0e49	0.15239824
113	0x3d98c28a	0.074589804
114	0xbdb96e65	-0.09054259
115	0xbe4a222f	-0.19739603
116	0x3d803eb9	0.062619634
117	0xbd7371f8	-0.05943486
118	0x3ca2b337	0.019860847
119	0x3dd6cc78	0.10488218
120	0x3d91767a	0.07102676
121	0x3d0dd9b2	0.03463144
122	0xbe211bb6	-0.15733227
123	0xbd008e35	-0.03138562
124	0x3e27a3cf	0.16371082
125	0xbe03d609	-0.12874617
126	0xbdf8614e	-0.121279344
127	0xbe1b2237	-0.1514977
128	0x3e2c722d	0.1684043
129	0xbd5083cd	-0.050906945
130	0xbd0060f9	-0.03134248
131	0x3dd179ee	0.10228334
132	0x3d871094	0.06594959
133	0x3de538b9	0.111924596
134	0xbd498b22	-0.049204953
135	0xbe07ea51	-0.13272978
136	0xbe1e5d50	-0.15465283
137	0xbe2a2bcb	-0.16618268
138	0x3e2f385d	0.17111345
139	0xbd73b323	-0.05949701
140	0x3de6dba2	0.112723604
141	0xbe1b9191	-0.15192248
142	0x3d66a083	0.05630542
143	0xbe3cd1c2	-0.18439391
144	0xbe0d519c	-0.13800663
145	0xbe06a943	-0.13150506
146	0x3e225335	0.15852053
147	0xbc9581b2	-0.01825032
148	0x3d12737f	0.035754677
149	0x3caff5cf	0.021479515
150	0xbe025195	-0.12726434
151	0x3e0af427	0.13569699
152	0xbd832073	-0.064026736
153	0xbd2a0964	-0.04151286
154	0x3e28ea6c	0.16495675
155	0x3e10452d	0.14088888
156	0x3e4dc662	0.20095208
157	0x3cb07264	0.02153892
158	0x3e341f76	0.17590126
159	0x3d07bf6a	0.03314153
160	0xbcf67650	-0.030085713
161	0xbdd12acd	-0.10213242
162	0xbe38996b	-0.18027274
163	0xbdf088dd	-0.117448546
164	0x3d5ed718	0.054404348
165	0xbd1e4b67	-0.038646128
166	0xbd98b6a2	-0.074567094
167	0xbe1e2789	-0.15444769
168	0xbdd69edd	-0.104795195
169	0xbdc7fc48	-0.09764916
170	0x3e2ef10f	0.17084144
171	0xbdcf47fd	-0.101211525
172	0xbe326f08	-0.17425168
173	0x3e010736	0.12600407
174	0xbd5feb2b	-0.054667633
175	0xbe11e6e3	-0.14248233
176	0xbde5cf22	-0.11221148
177	0xbda04d5d	-0.07827256
178	0xbe15a7f5	-0.14614852
179	0x3d553a7b	0.052057724
180	0xbe275cb8	-0.16343963
181	0xbd9f1589	-0.077677794
182	0x3d3a9e2e	0.04556101
183	0xbe3cc217	-0.18433414
184	0xbd76a0cd	-0.060211945
185	0xbdea0f8c	-0.114287466
186	0xbd0535ab	-0.032521885
187	0xbc0f2a65	-0.008738135
188	0x3e4f49f5	0.20243056
189	0x3ce248da	0.027622629
190	0xbe323aef	-0.17405294
191	0x3e2ccccc	0.16874999
192	0x3e0664db	0.13124411
193	0xbe1a9dc0	-0.1509924
194	0xbd0d93d3	-0.034564804
195	0x3e06f7a6	0.13180408
196	0xbe0f4dac	-0.13994473
197	0x3d74793f	0.05968594
198	0x3c9f9131	0.019478412
199	0x3e4153c3	0.18879609
200	0x3e25dde6	0.16197929
201	0x3e0d0657	0.1377195
202	0x3e02da9d	0.12778707
203	0x3e4092dd	0.18806024
204	0xbe3cecab	-0.18449657
205	0x3e08d977	0.13364206
206	0x3e377671	0.17916276
207	0x3d87f5b8	0.06638664
208	0xbe43619f	-0.19080208
209	0x3dd75be8	0.105155766
210	0x3dfee893	0.12446704
211	0xbe353826	-0.176972
212	0xbd7d2697	-0.06180438
213	0x3d62888b	0.055306
214	0xbd0b83f5	-0.03406139
215	0x3e25efac	0.16204709
216	0x3d276a9a	0.040873148
217	0xbe27c0b8	-0.1638211
218	0xbd3a6982	-0.045510776
219	0xbd4ebf01	-0.050475124
220	0xbdfd38ed	-0.12364373
221	0x3d65839d	0.05603372
222	0x3e41c2db	0.18921988
223	0xbe0e6ad6	-0.13907942
224	0x3e24bef1	0.16088463
225	0x3d8bf5d9	0.06834001
226	0xbd19f186	-0.03758385
227	0xbde1ef9f	-0.11032032
228	0x3e3d2d76	0.18474373
229	0xbbbfba18	-0.0058510415
230	0x3dbf974f	0.09355032
231	0xbc019eb2	-0.007911371
232	0xbd8be7c1	-0.06831313
233	0xbe2ea88e	-0.17056486
234	0xbc5be47e	-0.013421176
235	0x3e041bce	0.12901232
236	0xbe0c63fb	-0.13710015
237	0xbd02abe7	-0.03190222
238	0x3df3639b	0.118842326
239	0x3c0d2a9e	0.008616118
240	0xbdcc10c5	-0.09964136
241	0xbdab8d67	-0.0837658
242	0x3ce752eb	0.02823778
243	0x3d60677d	0.054786194
244	0xbd1c441a	-0.038150884
245	0xbdf3f539	-0.11912007
246	0x3cd1e0c8	0.02561988
247	0xbbc7637e	-0.0060848584
248	0x3db43026	0.08798246
249	0x3d361785	0.044456024
250	0x3e33ddbf	0.17565058
251	0x3e043bdc	0.1291346
252	0xbdfd431a	-0.12366314
253	0x3e05a826	0.13052425
254	0xbdf2f271	-0.11862648
255	0x3d84bf50	0.064818025

model.0.bias f4 [16]
0	0xbdff3236	-0.12460749
1	0x3cb70088	0.02233912
2	0xbde8e764	-0.11372259
3	0x3d717e44	0.058958307
4	0x3e288300	0.16456223
5	0x3e49773d	0.19674392
6	0xbd369b1d	-0.04458152
7	0xbdb9a878	-0.09065336
8	0x3e07e88e	0.13272306
9	0x3c9aac6d	0.018881047
10	0xbe24c7cd	-0.16091843
11	0xbd563b1b	-0.05230246
12	0x3bc7b7ba	0.0060949
13	0xbc9cf7f9	-0.019161211
14	0x3e2b1c93	0.16710119
15	0x3df5b3f3	0.11997213

model.3.weight f4 [32, 16, 3, 3]
0	0x3c084f21	0.008319647
1	0xbd94b218	-0.07260531
2	0x3d8ac39b	0.0677559
3	0xbdc0279d	-0.09382556
4	0xbdbe1e99	-0.0928318
5	0xbd037c1b	-0.032100778
6	0xbd15d59b	-0.036580663
7	0xbd99485e	-0.07484506
8	0xbd26716d	-0.040635515
9	0x3bab7015	0.005231867
10	0x3c01eda5	0.007930194
11	0x3d78f3fc	0.060779557
12	0x3b611d24	0.0034349645
13	0xbd70f0b5	-0.058823306
14	0xbd8a1a60	-0.06743312
15	0x3afb43e6	0.0019170016
16	0xbd44318b	-0.04789881
17	0xbbbd3d61	-0.005775139
18	0x3d5d25e4	0.053991213
19	0x3da68b67	0.08132058
20	0x3c3f1ddb	0.011664833
21	0xbd203971	-0.03911728
22	0x3da2ce60	0.07949519
23	0x3cc0a239	0.023514854
24	0x3d9b8b2d	0.07594905
25	0xbd3955d8	-0.045247883
26	0xbd92805c	-0.07153389
27	0x3d45d29c	0.048296556
28	0x3d25e09c	0.040497407
29	0xbd8bcc80	-0.06826115
30	0xbc7e009e	-0.015503077
31	0x3d2b9ced	0.041897703
32	0xbda25bd2	-0.079276696
33	0x3c5e91ea	0.013584593
34	0x3d9913e3	0.07474496
35	0xbda05161	-0.07828022
36	0x3c393dee	0.011306269
37	0x3c315931	0.010824488
38	0x3d92ae13	0.07162108
39	0x3c2777e0	0.0102214515
40	0xbd84abc6	-0.06478076
41	0x3d1192cf	0.0355404
42	0xbdaaf94d	-0.083483316
43	0xbd2d0470	-0.04224056
44	0xbd999e11	-0.07500852
45	0xbd620b00	-0.05518627
46	0x3d1f090e	0.038826995
47	0x3da391fd	0.079868294
48	0x3d970584	0.07374099
49	0xbce9431d	-0.028474385
50	0xbd1cc527	-0.038273957
51	0x3d851677	0.064984255
52	0xbbdfea4b	-0.00683335
53	0xbb3c10b8	-0.0028696489
54	0x3d8ebb86	0.06969361
55	0x3ca6ca73	0.020360207
56	0xbcf3fe2a	-0.02978428
57	0x3d62f6f5	0.055411298
58	0xbd9bcb4b	-0.076071344
59	0x3d9053cb	0.07047232
60	0x3cdf4f4f	0.027259497
61	0x3d7ce261	0.06173933
62	0xbd6b765a	-0.057485916
63	0x3dc232b5	0.09482328
64	0x3d5e4da3	0.05427326
65	0xbd13349b	-0.03593884
66	0x3cb12548	0.021624222
67	0x3d30aaa7	0.043131497
68	0x3d98aa04	0.07454303
69	0x3c95496d	0.018223489
70	0x3c24c671	0.010057078
71	0xbc97cdbb	-0.018530717
72	0xbdb041c2	-0.08606292
73	0xbd0c9cde	-0.034329288
74	0xbcce537a	-0.02518629
75	0xbc105a40	-0.00881058
76	0xbd77bc1b	-0.060482126
77	0xbc8d65ae	-0.017260399
78	0x3d1742ed	0.03692906
79	0xbc58a2c0	-0.013222396
80	0xbd0682a3	-0.03283943
81	0xbd55edd3	-0.05222876
82	0xbcb28d49	-0.021795886
83	0xbd9aeef5	-0.07565109
84	0xbd6356ee	-0.055502824
85	0x3d89ef4c	0.067350954
86	0xbc48ad36	-0.012248328
87	0x3cc49b1e	0.023999747
88	0xbd4e0b52	-0.050303765
89	0xbcc39f09	-0.023879545
90	0xbcf00a94	-0.029301919
91	0x3dab27a7	0.083571725
92	0xbd995885	-0.07487587
93	0xbd1c99d5	-0.038232643
94	0x3d239d9b	0.039945226
95	0x3d3cd427	0.04610076
96	0xbce6d793	-0.028178966
97	0xbd4fa710	-0.050696433
98	0x3d539a32	0.051660724
99	0xbd6ef268	-0.058336645
100	0x3d21165f	0.039327975
101	0xbd988911	-0.07448018
102	0xbd86736a	-0.06564982
103	0xbd9b24cc	-0.07575378
104	0xbc4efc7a	-0.012633437
105	0x3bf3d68b	0.007441347
106	0xbcb90827	-0.022586895
107	0x3d241007	0.040054347
108	0x3dba0a30	0.09083974
109	0xbc847646	-0.016169678
110	0xbd447c3c	-0.04797004
111	0x3d7363e2	0.059421428
112	0x3da77d83	0.08178236
113	0x3d903f98	0.070433795
114	0x3d0235a2	0.03178943
115	0xbd9d0470	-0.07666862
116	0xbd50a7df	-0.050941344
117	0xbd078636	-0.033086978
118	0x3db7484c	0.089493364
119	0xbc4d01a9	-0.012512603
120	0x3cc35b04	0.02384711
121	0x3d3136df	0.04326522
122	0x3cddc853	0.027073061
123	0x3d0b580c	0.034019515
124	0xbd2554e1	-0.04036415
125	0xbd9afca2	-0.07567717
126	0xbd87160a	-0.065960005
127	0x3ced99bf	0.029003976
128	0x3da086ed	0.07838235
129	0xbca61e68	-0.02027817
130	0xbc6b19d0	-0.014349416
131	0x3d72596c	0.05916731
132	0x3d7674e8	0.060170084
133	0x3c974ce4	0.018469281
134	0xbc680d1b	-0.014163281
135	0x3d9d393b	0.076769315
136	0x3da73213	0.08163848
137	0xbbf75358	-0.007547777
138	0xbd86991d	-0.06572173
139	0x3d099afc	0.03359507
140	0xbd8fb9af	-0.07017838
141	0x3d196a1e	0.037454717
142	0x3cc077e4	0.023494668
143	0x3d6df6b7	0.058096614
144	0x3d683a32	0.056696124
145	0x3d45adbc	0.04826139
146	0xbc58dbc6	-0.013235992
147	0xbc320ea8	-0.010867752
148	0xbd9ed95a	-0.077563
149	0x3d026022	0.03182996
150	0x3d125b66	0.035731696
151	0xbd0c1354	-0.03419812
152	0x3c1dc12d	0.009628576
153	0xbcbee6fd	-0.023303503
154	0x3d6dbb57	0.05803999
155	0xbd6bb043	-0.057541143
156	0x3c117834	0.008878756
157	0x3d7f20b4	0.062287048
158	0xbd891744	-0.06693891
159	0xbda25aaa	-0.07927449
160	0xbdb31c23	-0.08745601
161	0xbdc1f806	-0.09471135
162	0xbd975019	-0.07388324
163	0x3d9dbefc	0.07702443
164	0x3b2e14b5	0.0026562635
165	0xbd933f4f	-0.071898095
166	0x3d2df53e	0.04247021
167	0xbd8370c4	-0.06417993
168	0x3d0bf00b	0.03416447
169	0xbd764464	-0.060123816
170	0xbd85b03e	-0.06527756
171	0x3d656245	0.05600192
172	0xbdb60f50	-0.088896394
173	0xbc836a19	-0.016041802
174	0xbda94e05	-0.08266834
175	0x3d1cae59	0.03825221
176	0x3d311282	0.04323054
177	0x3c3e72a0	0.011624008
178	0x3ca3866f	0.019961564
179	0xbda985b8	-0.08277458
180	0x3d0f212d	0.03494375
181	0xbd4c50e6	-0.04988184
182	0x3d8a8b6f	0.06764876
183	0x3c37d1a7	0.011219419
184	0xbae3cee1	-0.001738038
185	0xbcd49a5a	-0.025952507
186	0x3ce6a308	0.028153911
187	0x3d95ae1e	0.07308601
188	0xbccf7919	-0.025326299
189	0x3c45f486	0.012082225
190	0xbc5e9069	-0.013584235
191	0xbd699d60	-0.05703485
192	0x3dad7e50	0.08471358
193	0x3d3e129a	0.04640446
194	0xbba8680f	-0.005139358
195	0x3d8a44e0	0.06751418
196	0xbd696234	-0.05697842
197	0xbcf6a255	-0.030106703
198	0xbd2ff19c	-0.042955026
199	0x3c4204ee	0.011841996
200	0xbc1e447d	-0.009659884
201	0x3d365dc6	0.044523023
202	0x3d100349	0.035159383
203	0x3ce9cdc2	0.028540496
204	0xbc262549	-0.010140725
205	0xbd8aa1a4	-0.06769112
206	0xbd655935	-0.055993278
207	0xbdab7b08	-0.08373076
208	0xbd92a1f4	-0.07159796
209	0x3db7c001	0.08972169
210	0x3d810db7	0.06301444
211	0xbc0b73ee	-0.0085115265
212	0x3d61edfd	0.055158604
213	0xbd8a1c8a	-0.06743725
214	0xbc8ea3e1	-0.017412128
215	0x3c8ff11b	0.017571023
216	0x3c45b9e2	0.012068244
217	0x3d2e409b	0.04254208
218	0xbc42948b	-0.011876236
219	0xbd375b62	-0.044764884
220	0xbd9ec4b4	-0.07752362
221	0xbd51a30d	-0.051180888
222	0x3b9c6052	0.0047722245
223	0x3c3f3d8e	0.011672391
224	0xbd3cdfa5	-0.04611172
225	0x3d38c3db	0.045108657
226	0x3da85d86	0.08220963
227	0x3d3f834e	0.04675608
228	0xbb8f71e3	-0.00437759
229	0x3d162120	0.036652684
230	0x3da04626	0.0782588
231	0x3d6971cc	0.05699329
232	0xbdb3b591	-0.087748654
233	0x3d510c3c	0.05103706
234	0xbd868a69	-0.065693684
235	0x3d2c04ae	0.04199665
236	0xbc821e9e	-0.01588374
237	0xbd849550	-0.064737916
238	0x3d0fc44e	0.03509932
239	0x3d7428ae	0.059609108
240	0xbc0d3492	-0.008618491
241	0x3c591761	0.013250203
242	0xbc9e2b65	-0.019307801
243	0xbb797868	-0.0038066152
244	0x3b94527f	0.004526436
245	0xb9f57371	-0.00046816052
246	0x3d6fd5db	0.058553558
247	0xbd2bbfa7	-0.04193082
248	0xbdb876a1	-0.09007002
249	0xbd6094a2	-0.054829247
250	0xbd8448d8	-0.06459206
251	0xbd51078a	-0.05103258
252	0x3d909fa2	0.070616975
253	0x3d7f1c0d	0.06228261
254	0xbcb07306	-0.021539222
255	0xbd2f6495	-0.042820532

model.3.bias f4 [32]
0	0xbd255009	-0.04035953
1	0xbc862a5d	-0.016377622
2	0xbdb21d16	-0.08696954
3	0xbcebf04a	-0.028801102
4	0x3d75ae2c	0.059980556
5	0x3d429251	0.04750282
6	0xbcbd10aa	-0.023079235
7	0x3bedef54	0.007261196
8	0x3d678ce7	0.05653086
9	0x3d02c1d4	0.03192313
10	0xbd9510e2	-0.07278611
11	0x3d3d9987	0.046288993
12	0x3cb5c8a5	0.022190401
13	0xbd28f4b5	-0.041248996
14	0x3d0f6e06	0.035017036
15	0xbc7306c5	-0.014833157
16	0x3d27528a	0.0408502
17	0xbd3f87ee	-0.046760492
18	0x3cf80e93	0.030280387
19	0xbcdf50da	-0.027260233
20	0xbd4ded51	-0.05027515
21	0x3cf3d9f6	0.029767018
22	0x3d933513	0.071878575
23	0x3d8c3ee3	0.06847932
24	0xbcaa18fb	-0.020763865
25	0xbadf6741	-0.0017044322
26	0xbd900c02	-0.0703354
27	0xbd7de798	-0.061988443
28	0xbd4f74b0	-0.05064839
29	0x3d6ee739	0.05832598
30	0x3d25be8e	0.04046493
31	0xbbc26589	-0.005932514

model.6.weight f4 [32]
0	0x3f81dddc	1.0145831
1	0x3f81a37c	1.0128016
2	0x3f7ea977	0.9947733
3	0x3f80f573	1.0074905
4	0x3f820fb2	1.016104
5	0x3f81be4a	1.0136197
6	0x3f804b3f	1.0022963
7	0x3f80f9bc	1.0076213
8	0x3f81f888	1.0153971
9	0x3f800c9e	1.000385
10	0x3f81435f	1.0098685
11	0x3f8103df	1.0079306
12	0x3f818484	1.0118566
13	0x3f81fd75	1.0155474
14	0x3f80b163	1.0054134
15	0x3f8028dc	1.0012469
16	0x3f802b60	1.0013237
17	0x3f81449f	1.0099066
18	0x3f81450e	1.0099199
19	0x3f80d940	1.00663
20	0x3f817703	1.0114444
21	0x3f808d58	1.0043135
22	0x3f80e889	1.0070964
23	0x3f8109d2	1.0081122
24	0x3f81527a	1.0103295
25	0x3f80c0c2	1.0058825
26	0x3f8066df	1.0031394
27	0x3f80a910	1.0051594
28	0x3f80947d	1.0045315
29	0x3f82bbd3	1.0213569
30	0x3f8044d5	1.0021006
31	0x3f8001ba	1.0000527

model.6.bias f4 [32]
0	0xbb198301	-0.0023424032
1	0x3bb568a6	0.0055361567
2	0xba451b3d	-0.00075190124
3	0x3bab698c	0.005231088
4	0x3b641129	0.0034800267
5	0xb9dcb4fe	-0.0004209652
6	0x3ac068a0	0.0014679618
7	0xbad7a8c7	-0.0016453498
8	0xbb8ce1bb	-0.00429937
9	0xbaee686d	-0.001818908
10	0xbbb0d5ff	-0.005396604
11	0xbbb47930	-0.0055076107
12	0xbb734094	-0.003711735
13	0x3c0cd0c4	0.0085946955
14	0xbc067c4b	-0.008208345
15	0x3bd4c9ab	0.0064937673
16	0xbb9a64bd	-0.004711716
17	0xba514737	-0.0007983329
18	0xbb1e1d36	-0.0024126298
19	0x3c2c5785	0.010518913
20	0xbb734c52	-0.0037124348
21	0x3ac1084f	0.0014727208
22	0xba174582	-0.00057705503
23	0xbc2fca42	-0.010729374
24	0xbc4f1553	-0.012639361
25	0xbc17273b	-0.009225662
26	0xbbde8923	-0.0067912503
27	0xbb302ba5	-0.0026881483
28	0xbbb54da2	-0.005532936
29	0xbbb15ff9	-0.005413052
30	0x38e7f2a8	0.000110601366
31	0xbc285c1c	-0.010275867

model.6.running_mean f4 [32]
0	0x3e6624c0	0.22474957
1	0x3d96a561	0.07355762
2	0xbd01a0f6	-0.031647645
3	0x3d965669	0.073407
4	0x3e0e49e3	0.13895373
5	0x3e15b007	0.1461793
6	0x3d47216b	0.048615854
7	0xbc9aef06	-0.018912803
8	0x3d9cb1a7	0.07651072
9	0x3e30a9a3	0.17252211
10	0x3d0fc8b1	0.035103504
11	0x3e27fd82	0.164053
12	0x3d8becc2	0.06832267
13	0x3c790bab	0.015200536
14	0x3e70de78	0.23522365
15	0xbd3addbc	-0.04562162
16	0x3ea9f065	0.3319122
17	0xbb9d1673	-0.004793936
18	0x3d234ae8	0.039866358
19	0x3dff8645	0.12476782
20	0x3ce730ae	0.028221454
21	0x3d1eeb05	0.03879835
22	0x3e1e635a	0.15467587
23	0x3e80996a	0.25117046
24	0x3e44faed	0.19236346
25	0x3e53fb27	0.20701276
26	0x3d93b9cf	0.072131746
27	0xbd650290	-0.055910647
28	0x3e50adef	0.2037885
29	0x3d865ad5	0.065602936
30	0x3dc1e9cb	0.094684206
31	0x3e82dd31	0.2555938

model.6.running_var f4 [32]
0	0x3db6f993	0.08934321
1	0x3c5c5fe1	0.013450594
2	0x3a559da4	0.00081487955
3	0x3c41d053	0.0118294535
4	0x3d393c5d	0.045223583
5	0x3cf3829e	0.029725369
6	0x3c4deb96	0.012568375
7	0x3b9d8e01	0.004808188
8	0x3c3f568a	0.011678347
9	0x3d839458	0.06424779
10	0x3c026fcb	0.007961224
11	0x3d15a7f3	0.036537122
12	0x3c917675	0.01775668
13	0x3bcdb578	0.0062777363
14	0x3d989d89	0.074519224
15	0x3b210a30	0.0024572723
16	0x3e15589a	0.1458458
17	0x3bc1ec6d	0.0059180767
18	0x3c25a2a2	0.010109575
19	0x3d117696	0.035513483
20	0x3c088d0c	0.008334409
21	0x3c28b8b5	0.010297944
22	0x3cf0ab7c	0.029378645
23	0x3d553b2b	0.05205838
24	0x3d6d6b5b	0.05796371
25	0x3d840d33	0.0644783
26	0x3c907b00	0.017636776
27	0x3b6640b2	0.0035133776
28	0x3d7b052d	0.061284233
29	0x3c77a186	0.015114194
30	0x3c86ea80	0.01646924
31	0x3dd9789b	0.10618707

model.7.weight f4 [64, 32, 3, 3]
0	0xbbd25e89	-0.006419961
1	0xbd368fde	-0.044570796
2	0xb9b24ff9	-0.0003401039
3	0xbd2e0a1e	-0.042490117
4	0x3bdf29fe	0.006810426
5	0x3b85d856	0.004084627
6	0xbce7f5a1	-0.028315367
7	0xbcc8c976	-0.024510127
8	0xbd0e988e	-0.034813456
9	0x3d1ddc19	0.03853998
10	0xbceaeaa6	-0.028676342
11	0xbca557b7	-0.020183427
12	0xbc0c30ab	-0.008556525
13	0xbd6a46cd	-0.057196427
14	0x3ccdae83	0.025107628
15	0x3c162cc5	0.009165947
16	0x3c998450	0.01873985
17	0x3d5cc2e2	0.053896792
18	0x3d1fd5b7	0.039022174
19	0xbce91e72	-0.0284569
20	0xbd060b0a	-0.03272537
21	0x3cbae3c0	0.022813678
22	0xbd34454a	-0.04401139
23	0x3cf7d59d	0.030253226
24	0xbd44f8ca	-0.048088826
25	0xbd5f4fd8	-0.054519504
26	0xbd02f0ed	-0.031968046
27	0xbca825d3	-0.020525848
28	0x39954414	0.00028470217
29	0xbb293f66	-0.0025825142
30	0xbd7acb24	-0.061228886
31	0xbd615094	-0.055008486
32	0xbc9671c8	-0.018364802
33	0xbd5d9af0	-0.054102838
34	0x3d29f672	0.041494794
35	0x3d20f659	0.039297435
36	0xbd243fa0	-0.04009974
37	0x3c5d328d	0.013500822
38	0xbd20dee5	-0.03927507
39	0xbb9771cd	-0.0046217204
40	0xbd7a2929	-0.06107441
41	0x3ce0739a	0.027398873
42	0xbd86fe0c	-0.06591424
43	0x3c60e37c	0.0137261115
44	0x3d50e14e	0.050996117
45	0xbc4d3061	-0.012523741
46	0xbd49432c	-0.049136326
47	0x3d4e94e7	0.050434973
48	0xbc38790d	-0.0112593295
49	0x3c11d1f5	0.008900155
50	0xbc99faf5	-0.018796423
51	0x3c4ab463	0.012372109
52	0xbc8a858b	-0.016909381
53	0x3cdd6606	0.027026188
54	0x3c41a868	0.011819936
55	0xbc94a1e9	-0.018143611
56	0xbd384ac8	-0.044993192
57	0x3d035397	0.03206214
58	0xbcf3f859	-0.029781507
59	0xbb5d3337	-0.003375245
60	0x3d52b7c0	0.05144477
61	0x3ceefad1	0.029172333
62	0xbc1a1227	-0.009403742
63	0x3c132ed0	0.008983329
64	0xbd28f9ed	-0.041253973
65	0xbd23c4de	-0.03998267
66	0x3d2f5f15	0.042815287
67	0x3d4a2584	0.049352184
68	0x3d0bb9aa	0.03411261
69	0xbd7bd72b	-0.061484497
70	0x3d2a6bdc	0.04160677
71	0x3cc17bf6	0.02361868
72	0x3d703be8	0.05865088
73	0x3d6015dd	0.05470835
74	0xbd35baea	-0.04436771
75	0x3ab60da4	0.0013889563
76	0xbcade2b0	-0.021226257
77	0x3c66b1ee	0.014080508
78	0x3d26c110	0.040711462
79	0xbd341b83	-0.04397155
80	0xbcf390fb	-0.029732218
81	0xbd19283b	-0.037391882
82	0x3d1286e0	0.035773158
83	0xbd0a850b	-0.033818286
84	0xbcd1da50	-0.025616795
85	0xbd2fc7df	-0.04291522
86	0xbc910fd6	-0.017707746
87	0x3d54f5ff	0.051992413
88	0xbced47f5	-0.028964976
89	0xbd4ec6f8	-0.05048272
90	0xbd2bc516	-0.041936003
91	0xbce10575	-0.027468422
92	0x3d537068	0.05162087
93	0xbd660f1f	-0.056166764
94	0x3ca639a7	0.020291163
95	0x3d0e2a3f	0.034708258
96	0x3d3c5322	0.04597772
97	0xbbe1ce4d	-0.006891048
98	0x3d1144d8	0.035466045
99	0xbd5def1c	-0.05418311
100	0xbb8ee5da	-0.0043608965
101	0xbd018b8e	-0.03162723
102	0x3cba9bfd	0.02277946
103	0xbd3c6780	-0.045997143
104	0x3cdb8a57	0.026799364
105	0xbd14ca5e	-0.036325805
106	0xbcb887e8	-0.022525743
107	0xbd5d6be4	-0.05405797
108	0x3bbf2954	0.005833784
109	0x3d13e716	0.036109053
110	0x3b83833c	0.004013447
111	0xbb525848	-0.0032096077
112	0xbd0e0bb4	-0.03467913
113	0x3d496d92	0.04917676
114	0xbd20e49a	-0.03928051
115	0x3cc0dfb7	0.023544176
116	0xbd886c2d	-0.06661258
117	0xbd67f950	-0.056634247
118	0xbba709b4	-0.0050975922
119	0x3c718936	0.014742186
120	0xbcad7789	-0.021175163
121	0xbba5420c	-0.005043274
122	0x3d21faca	0.03954581
123	0xbb9cbe4a	-0.0047834264
124	0xbca00c60	-0.01953715
125	0xbb15012f	-0.0022736301
126	0x3d5c37d5	0.053764183
127	0xbd4b8144	-0.049683824
128	0x3bf41cf4	0.0074497405
129	0xbc1f6db0	-0.009730741
130	0xbd0a1623	-0.033712517
131	0xbb0ed612	-0.0021795076
132	0xbc96e074	-0.018417574
133	0xbce818db	-0.028332165
134	0x3b732c89	0.0037105402
135	0xbd451756	-0.048117958
136	0x3d46c456	0.048527084
137	0xbd299da2	-0.041410096
138	0x3cc53820	0.024074614
139	0xbcf31170	-0.0296714
140	0xbcf2a35f	-0.029618917
141	0x3d27400a	0.040832557
142	0xbd3f14ef	-0.046650823
143	0xbcc55ccb	-0.024092099
144	0x3d3d7dcc	0.046262547
145	0x3a60b63c	0.0008572077
146	0xbd668c86	-0.056286357
147	0x3cf62c2b	0.030050358
148	0xbc8bac90	-0.017050058
149	0x3ccd8df7	0.025092108
150	0xbcf90a15	-0.030400315
151	0x3c05b3ab	0.008160512
152	0x3c89e0cc	0.016830824
153	0x3bb2fdde	0.0054623922
154	0xbcec6a06	-0.02885915
155	0x3c66fdb0	0.01409857
156	0x3bb46e5e	0.005506321
157	0x3c856467	0.016283227
158	0x3d3ca119	0.046052072
159	0xbc407636	-0.011746934
160	0xbb998894	-0.004685471
161	0x3b06007f	0.0020447073
162	0xbc2a8d04	-0.010409597
163	0x3c23a25e	0.009987442
164	0x3a909c59	0.0011032923
165	0x3d49bdb5	0.049253184
166	0x3b884c7e	0.004159509
167	0x3d191fc0	0.037383795
168	0xbc5bb4bd	-0.013409791
169	0x3cfdcf7e	0.030982729
170	0x3b855b22	0.004069702
171	0xbd3ecf3b	-0.04658435
172	0x3caeaf1c	0.021323733
173	0x3d0ad283	0.033892166
174	0xbd25663c	-0.0403807
175	0xbd484bde	-0.048900478
176	0xbd40b9f0	-0.047052324
177	0xbd18c08d	-0.037293006
178	0x3c7a5e3e	0.015281258
179	0x3d2eed40	0.042706728
180	0x3c3621c0	0.011116445
181	0x3d623c05	0.05523302
182	0x3d1e98b5	0.03871985
183	0xbc454021	-0.012039215
184	0x3d3cc887	0.046089675
185	0x3c581527	0.013188637
186	0xbc6ccbf7	-0.014452926
187	0xbd2414d1	-0.040058915
188	0x3d37d010	0.04487616
189	0xbc9cb61a	-0.019129802
190	0x3c505b29	0.012717047
191	0xbd1b93a2	-0.03798259
192	0xbd3792f6	-0.044817887
193	0xbc398935	-0.011324217
194	0x3c6461b0	0.013939306
195	0x3bb236ea	0.005438675
196	0xbcbbc543	-0.02292121
197	0xbccba9f7	-0.024861319
198	0x3bb67b22	0.005568878
199	0xbd76155f	-0.060078975
200	0xbb7e1aaf	-0.003877323
201	0x3d417963	0.047234904
202	0xbc928427	-0.01788528
203	0xbd357d18	-0.04430875
204	0xbd2f543e	-0.04280495
205	0xbc44ad3c	-0.012004193
206	0x3d373bc1	0.04473472
207	0xbced198b	-0.028942844
208	0x3c451df9	0.012031072
209	0x3c2c7920	0.010526925
210	0xbcc76162	-0.024338428
211	0xbc8a1bfa	-0.016859043
212	0x3cf9a46e	0.030473914
213	0xbc9108b6	-0.017704349
214	0xbd53e1a3	-0.051728856
215	0xbd8372c4	-0.06418374
216	0xbd6cf05d	-0.057846416
217	0xbd35358b	-0.044240516
218	0xbb9e69dc	-0.0048343968
219	0xbd67da61	-0.056604747
220	0x3cda6410	0.026659042
221	0x3d55cc0a	0.05219654
222	0xbd70dd25	-0.05880465
223	0x39ab7ffd	0.0003271102
224	0x3c4884d7	0.012238703
225	0xb920564e	-0.0001529094
226	0x3bedb950	0.007254757
227	0x3d568c5d	0.052379955
228	0xbc92c37a	-0.017915476
229	0xbd65d24c	-0.056108758
230	0x3cdbce88	0.02683188
231	0xbcae137d	-0.021249527
232	0x3cfa11c1	0.030526044
233	0xbd445c86	-0.0479398
234	0xbaacb453	-0.0013176299
235	0x3b0be88b	0.0021348323
236	0xbd3206e2	-0.043463595
237	0xbcce24cf	-0.025164036
238	0xbc90513a	-0.017616857
239	0xbd31b28a	-0.04338316
240	0x3d529f75	0.0514216
241	0x3b22ddc2	0.0024851416
242	0x3d130587	0.035893943
243	0x3ce7f11b	0.02831321
244	0xbca7d813	-0.020488774
245	0x3d24d382	0.040240772
246	0xbc999e2c	-0.01875218
247	0xbd4a4f30	-0.049391925
248	0x3cc335c9	0.023829358
249	0x3d119fd2	0.035552807
250	0x3d770e40	0.060316324
251	0xbb3b5c59	-0.002858898
252	0xbbfab89f	-0.007651403
253	0xbcd50aa6	-0.026006054
254	0xbd007ff4	-0.031372026
255	0xbd1d9238	-0.038469523

model.7.bias f4 [64]
0	0x3d08034b	0.033206265
1	0x3d5ce96f	0.053933557
2	0xbb2e46fe	-0.0026592608
3	0xbd532bb0	-0.051555336
4	0x3d5c3923	0.053765427
5	0x3cf7a02c	0.030227743
6	0x3d2058c3	0.03914715
7	0x3c3befa4	0.011470709
8	0x3a3b167a	0.0007136833
9	0xbd18ad94	-0.037274912
10	0x3d6f3edc	0.058409557
11	0x3c154ec8	0.009113021
12	0x3d85b1b3	0.06528034
13	0xbcf53cd2	-0.029936228
14	0x3cdc42d5	0.026887337
15	0xbce2b96b	-0.027676305
16	0x3ce44ced	0.027868712
17	0x3d09791e	0.033562772
18	0xbc9bae44	-0.019003995
19	0x3c9a7a49	0.018857138
20	0x3d1191ba	0.035539366
21	0x3c7a1b1a	0.015265251
22	0xbd6c0fcf	-0.057632264
23	0xbb917b8c	-0.0044397768
24	0xbc5f9936	-0.013647368
25	0xbd4aa99e	-0.049478166
26	0x3d58b0f0	0.052903116
27	0xbc0b982f	-0.00852017
28	0x3d2f8d38	0.042859286
29	0x3cc6e9cd	0.024281407
30	0xbd17f7c6	-0.03710153
31	0xbd3e1dc1	-0.046415094
32	0xbd0b5a6f	-0.03402179
33	0xbcdb0e35	-0.026740173
34	0xbc9320e9	-0.017960029
35	0x3d4abba5	0.049495358
36	0xbb9c46b0	-0.004769169
37	0x3c7e5254	0.015522558
38	0xbd2df99c	-0.042474374
39	0x3c03acf7	0.0080368435
40	0xbd5d634c	-0.054049775
41	0xbd50f547	-0.051015165
42	0x3d737b49	0.059443746
43	0xbd2cf433	-0.042225074
44	0xbc5d0afa	-0.013491387
45	0x3d767438	0.06016943
46	0xbd0289ad	-0.03186958
47	0xbcccd105	-0.025002012
48	0xbc947c07	-0.018125547
49	0x3a813ce3	0.0009860065
50	0xbcdb980f	-0.026805906
51	0xbd0e274c	-0.034705445
52	0x3d670a27	0.056406166
53	0xbcf6bea1	-0.030120196
54	0x3c7341db	0.014847244
55	0xbcab229a	-0.020890523
56	0xbcfbf3ad	-0.030755842
57	0xbd400466	-0.046879195
58	0xbbeb5768	-0.0071820505
59	0x3cd7aa8b	0.026326438
60	0xbcc33f84	-0.023833998
61	0xbd31851d	-0.043339837
62	0x3d27576e	0.040854864
63	0x3cde6366	0.027147006

model.10.weight f4 [64]
0	0x3f808951	1.0041906
1	0x3f802623	1.0011638
2	0x3f80915b	1.0044359
3	0x3f80449e	1.002094
4	0x3f814c82	1.0101473
5	0x3f80438b	1.0020612
6	0x3f80cb69	1.0062076
7	0x3f819ff7	1.0126942
8	0x3f80d8e2	1.0066187
9	0x3f8113e8	1.00842
10	0x3f802f32	1.0014403
11	0x3f80b3ff	1.005493
12	0x3f810b5b	1.008159
13	0x3f807f3e	1.0038831
14	0x3f803d8c	1.0018783
15	0x3f80ea47	1.0071496
16	0x3f80f28f	1.0074023
17	0x3f805bca	1.0028012
18	0x3f80ad5b	1.0052904
19	0x3f80e9fb	1.0071405
20	0x3f80750c	1.003572
21	0x3f8138cf	1.0095462
22	0x3f806bb9	1.0032874
23	0x3f80214d	1.0010163
24	0x3f80c787	1.0060891
25	0x3f80f283	1.0074009
26	0x3f7f7122	0.99782
27	0x3f80fb4c	1.007669
28	0x3f804b77	1.002303
29	0x3f80568c	1.0026412
30	0x3f8169e3	1.0110439
31	0x3f8148ed	1.010038
32	0x3f8001e4	1.0000577
33	0x3f807334	1.0035157
34	0x3f80a155	1.0049235
35	0x3f8020b0	1.0009975
36	0x3f80a422	1.0050089
37	0x3f80c8dc	1.0061297
38	0x3f804a50	1.0022678
39	0x3f80b0ac	1.0053916
40	0x3f811493	1.0084404
41	0x3f80bde4	1.005795
42	0x3f80671e	1.0031469
43	0x3f81ac8d	1.0130783
44	0x3f811126	1.0083358
45	0x3f80ab4d	1.0052277
46	0x3f8187d1	1.0119573
47	0x3f809332	1.004492
48	0x3f80a004	1.0048833
49	0x3f7f114d	0.99635774
50	0x3f80dd07	1.0067452
51	0x3f81ab2f	1.0130366
52	0x3f80379c	1.0016971
53	0x3f80defe	1.0068052
54	0x3f81445e	1.0098989
55	0x3f80230a	1.0010693
56	0x3f823e30	1.0175228
57	0x3f808d02	1.0043032
58	0x3f8104fe	1.0079648
59	0x3f804043	1.0019611
60	0x3f80032a	1.0000966
61	0x3f80a1a5	1.004933
62	0x3f811d7f	1.0087126
63	0x3f80a973	1.0051712

model.10.bias f4 [64]
0	0x3b807445	0.0039201104
1	0x3c292890	0.010324612
2	0xbbbeefa8	-0.005826909
3	0xbbf83c45	-0.007575544
4	0x3b78a845	0.0037942093
5	0xbbf18ebf	-0.007371753
6	0x3c2ff0c5	0.010738556
7	0x3c5cb29a	0.013470316
8	0xbc24fdde	-0.010070292
9	0x3b0b56dd	0.0021261491
10	0xbb93f1bc	-0.004514901
11	0x3bcf1bf7	0.0063204723
12	0xbb844471	-0.004036479
13	0x3b59d3a5	0.0033237722
14	0xbc0d9aad	-0.008642835
15	0xbb61d4d0	-0.0034459122
16	0x3bd0f6d7	0.006377082
17	0xbbef78f9	-0.0073081222
18	0xb9cd37a1	-0.00039142094
19	0x3c7d7ec0	0.015472114
20	0xba8ed650	-0.001089761
21	0x3baf5b84	0.0053514857
22	0xbbff8687	-0.0077980193
23	0xbbae1d3f	-0.005313545
24	0xbaa42b84	-0.0012525176
25	0x3c197ddd	0.009368387
26	0x3b301151	0.002686579
27	0x3a4a3617	0.00077137485
28	0xba96d039	-0.0011506147
29	0x3b9b164d	0.004732883
30	0x3c3a2550	0.011361435
31	0x3c1aa0df	0.009437769
32	0xbb9a3e23	-0.0047071143
33	0x3b16af8b	0.0022992815
34	0x3a69a0e0	0.0008912217
35	0xbbbeabae	-0.0058188057
36	0xbbbe7ece	-0.005813456
37	0x3b275e4f	0.002553839
38	0x3b08714c	0.0020819483
39	0xbc004017	-0.00782778
40	0xbbae25f5	-0.0053145834
41	0xbc18cc4d	-0.009326053
42	0xbb0e291f	-0.002169199
43	0xbba8a3a4	-0.0051464606
44	0xbb156069	-0.002279306
45	0x3c043295	0.0080687
46	0x3b9f9fd3	0.0048713475
47	0xbbc87eb7	-0.006118621
48	0xba3d0f2b	-0.0007212038
49	0x3b12783a	0.0022349493
50	0x3a057e54	0.0005092372
51	0xbb960367	-0.0045780423
52	0xbbdcd107	-0.006738785
53	0x3ae5d8bf	0.0017535909
54	0x3bc752cc	0.006082868
55	0xbc27ba91	-0.010237352
56	0x3c1a29e5	0.0094094025
57	0xbbbc1120	-0.005739346
58	0xbbd21aae	-0.006411872
59	0xbb8b4fb6	-0.0042514456
60	0xbb72227b	-0.0036946821
61	0xbbd34c26	-0.0064482866
62	0x3c20f364	0.009823654
63	0xbb54bcbb	-0.0032461125

model.10.running_mean f4 [64]
0	0x3d881364	0.066443235
1	0x3daa4900	0.08314705
2	0x3d40f0f3	0.047104787
3	0x3ca1e899	0.019764232
4	0x3d8e354c	0.06943759
5	0x3d9423fa	0.072334245
6	0x3d7c4883	0.06159259
7	0x3d4c990b	0.04995064
8	0x3d0de823	0.03464521
9	0x3c42439d	0.011856941
10	0x3d9e1c3f	0.07720231
11	0x3d34d55f	0.0441488
12	0x3db09eda	0.086240485
13	0x3ce1d936	0.027569395
14	0x3d56e7ce	0.05246716
15	0x3c41512d	0.011799139
16	0x3d6e31a1	0.0581528
17	0x3d808566	0.06275444
18	0x3c4e4b9f	0.012591272
19	0x3d6b5500	0.05745411
20	0x3d581562	0.052754767
21	0x3d24faa1	0.04027808
22	0x3ce1c4a1	0.02755958
23	0x3cfb7012	0.030693088
24	0x3cabbf6b	0.020965299
25	0x3c0583e0	0.008149117
26	0x3d92db8a	0.0717078
27	0x3d013165	0.031541247
28	0x3d725102	0.059159286
29	0x3d60c005	0.054870624
30	0x3cf0c5fe	0.029391285
31	0x3c76d141	0.015064538
32	0x3c5409de	0.012941806
33	0x3c0db962	0.008650156
34	0x3cc1b248	0.023644581
35	0x3d35657f	0.044286247
36	0x3d167da6	0.03674092
37	0x3d2e8dde	0.042615764
38	0x3c194c9a	0.009356642
39	0x3d1b587a	0.037926175
40	0x3c49eb3c	0.012324151
41	0x3c1d2e90	0.009593621
42	0x3d8cf8fa	0.06883426
43	0x3b8f6f56	0.004377286
44	0x3c79553e	0.015218077
45	0x3d91a08a	0.071106985
46	0x3c94a910	0.018147022
47	0x3cb1250d	0.021624113
48	0x3d0ef62f	0.034902748
49	0x3ced7b7b	0.028989544
50	0x3c357ac7	0.011076636
51	0x3c8bf325	0.017083714
52	0x3d8a28f0	0.067460895
53	0x3c81cca7	0.015844656
54	0x3d395a7f	0.04525232
55	0x3cc5195d	0.024059946
56	0x3d21dc93	0.039516997
57	0xbb80ada7	-0.003926951
58	0x3d00b29c	0.031420335
59	0x3d341686	0.043966793
60	0x3c42706a	0.011867622
61	0x3c8916e1	0.016734542
62	0x3d568d80	0.05238104
63	0x3d7cd2d7	0.06172451

model.10.running_var f4 [64]
0	0x3c49e422	0.0123224575
1	0x3c48ecc1	0.012263478
2	0x3c46fa83	0.012144688
3	0x3c36a465	0.011147593
4	0x3c2fff3a	0.010742003
5	0x3c8ed520	0.01743561
6	0x3c1e8793	0.009675878
7	0x3c229847	0.009924001
8	0x3c03eac9	0.008051583
9	0x3b7af0cf	0.0038290506
10	0x3c92e5d3	0.017931854
11	0x3bd4ae58	0.00649051
12	0x3c4e69ae	0.012598438
13	0x3c28c4a6	0.010300791
14	0x3c467b17	0.012114308
15	0x3b81c078	0.0039597116
16	0x3c36dc79	0.011160963
17	0x3c201268	0.009770013
18	0x3b4be6c8	0.0031112898
19	0x3bddbdfd	0.006767033
20	0x3c265482	0.010151984
21	0x3c091060	0.0083657205
22	0x3c91717f	0.017754314
23	0x3ba72f99	0.0051021096
24	0x3b94009b	0.0045166737
25	0x3b5efb30	0.003402423
26	0x3c1a7454	0.009427149
27	0x3bb43b1a	0.0055002095
28	0x3c1ad79a	0.0094508175
29	0x3c0133cf	0.007885887
30	0x3bf4aa37	0.0074665803
31	0x3ba7bf28	0.005119223
32	0x3bb4b4f9	0.0055147377
33	0x3b6f65de	0.0036529223
34	0x3bcad50b	0.0061899475
35	0x3be24666	0.006905365
36	0x3c13d571	0.009023056
37	0x3c0ee7f5	0.008722295
38	0x3b7e5b3d	0.0038811706
39	0x3bd07b88	0.0063623823
40	0x3c160424	0.009156261
41	0x3be39f51	0.006946482
42	0x3c0c1aab	0.00855128
43	0x3b5cbe94	0.003368293
44	0x3b7e0db1	0.0038765485
45	0x3c2a34c4	0.010388557
46	0x3bc7a2ba	0.0060923966
47	0x3bcdbb11	0.0062784036
48	0x3bcfba4f	0.0063393484
49	0x3bf08afe	0.007340788
50	0x3bc5c4ef	0.006035439
51	0x3bc316f9	0.0059536663
52	0x3c487851	0.012235717
53	0x3b9ed7a1	0.0048474823
54	0x3bee67f6	0.0072755767
55	0x3c33e98d	0.010980976
56	0x3c433517	0.011914513
57	0x3b287dae	0.0025709677
58	0x3c02b617	0.007977984
59	0x3c152dc2	0.009105148
60	0x3b6ce98d	0.003614995
61	0x3c153b05	0.00910831
62	0x3c156cb9	0.00912016
63	0x3c8e9cae	0.017408695

model.11.weight f4 [128, 64, 3, 3]
0	0xbcd43e6e	-0.025908675
1	0xbd0c4a3c	-0.034250483
2	0x3cacb8ce	0.021084215
3	0x3a8ccf10	0.0010742862
4	0xbd0d8b12	-0.034556456
5	0xbce7f5ab	-0.028315386
6	0x3b645e75	0.003484634
7	0x3d23b966	0.03997173
8	0x3c583f7d	0.013198731
9	0xbc1f621d	-0.009727982
10	0x3cc1a1c2	0.023636702
11	0x3c6f809b	0.014618064
12	0x3caee3cb	0.021348855
13	0x3c832bde	0.016012128
14	0x3ca23940	0.01980269
15	0xbcb8185d	-0.022472555
16	0xb8d7857e	-0.00010276864
17	0xbb81c818	-0.0039606206
18	0xbd03b7af	-0.032157596
19	0xbccbcde4	-0.02487845
20	0x3bffb510	0.0078035668
21	0x3d01f6f2	0.031729646
22	0xbb278586	-0.0025561764
23	0x3d1fe3e8	0.039035708
24	0x3ca212dc	0.019784383
25	0x3c840edf	0.016120372
26	0x3d0ca7fb	0.034339886
27	0xbc831e56	-0.016005676
28	0x3c2b1197	0.010441205
29	0xbcd36f77	-0.025809987
30	0xbd086b06	-0.03330519
31	0x3c64fadb	0.013975824
32	0xbc91a8ea	-0.01778074
33	0xbce06d79	-0.02739595
34	0xbcde0c84	-0.027105577
35	0x3bb0f548	0.0054003336
36	0x3c87eb96	0.016591828
37	0xbca2edc6	-0.01988877
38	0xbc4ba7cd	-0.012430144
39	0x3cc53940	0.02407515
40	0x3c34c87f	0.01103413
41	0xbcdfe54f	-0.027331023
42	0xbc2781c1	-0.010223807
43	0x3d09e10c	0.033661887
44	0xbac387dd	-0.001491781
45	0x3c32cd54	0.010913212
46	0xbc5feb31	-0.013666914
47	0xbbad22ea	-0.005283703
48	0x3c3edab2	0.011648821
49	0x3cbcada5	0.023032019
50	0xbc6cb630	-0.014447734
51	0x377cc3c1	1.5065948e-05
52	0xbd052bb9	-0.0325124
53	0x3b4b75a4	0.003104546
54	0xbd2b9b56	-0.041896187
55	0xbc992ecf	-0.018699078
56	0xbcf93156	-0.030419033
57	0xb904ad48	-0.00012653053
58	0x3be08702	0.0068520317
59	0x3be1e5dd	0.006893857
60	0x3be5e893	0.0070162504
61	0x3cd9f770	0.026607245
62	0x3cf485ca	0.029848952
63	0x3c7871da	0.015163863
64	0x3d07062c	0.03296487
65	0xbcaf7a3c	-0.02142059
66	0xbb9cca29	-0.0047848416
67	0xbcb8cffb	-0.02256011
68	0x3ca9dc45	0.020734916
69	0xbca8e891	-0.020618709
70	0xbc83686d	-0.016041005
71	0x3bcbb98e	0.006217188
72	0xbca0c4ee	-0.019625153
73	0xbcfc545d	-0.030801946
74	0x3c3ce3d0	0.011528924
75	0xbd1a38db	-0.037651878
76	0x3c1e0db0	0.009646818
77	0x3c93f908	0.018063083
78	0x3bcbb87b	0.00621706
79	0x3bd089ba	0.0063640745
80	0xbd0c91d6	-0.034318767
81	0x3d20d178	0.039262265
82	0x3ad90cc6	0.0016559593
83	0x3d2ff192	0.04295499
84	0xbcb351b1	-0.02188954
85	0x3d012581	0.031529907
86	0xbd02125f	-0.0317558
87	0x3d081300	0.033221245
88	0xbc821bcc	-0.015882395
89	0x3bf4dc5a	0.007472557
90	0xbc33d39f	-0.010975747
91	0x3c24476a	0.010026792
92	0xbd123e7c	-0.03570412
93	0xbcaa9d2b	-0.020826897
94	0xbce61ccf	-0.028089909
95	0x3ce67623	0.028132504
96	0x3c91b6b6	0.017787319
97	0xbc81cf78	-0.015846
98	0x3cd763fa	0.02629279
99	0x3c7e361f	0.015515833
100	0xbcb8b4e4	-0.022547193
101	0x3c8c85f8	0.017153725
102	0x3d0d19ee	0.034448557
103	0x3cf54dda	0.02994435
104	0xbc6ad6e5	-0.014333461
105	0xbc9739b8	-0.01846014
106	0xbd1b688d	-0.037941504
107	0xbb8f6912	-0.004376539
108	0x3d121225	0.035661835
109	0x3c2b1004	0.01044083
110	0x3cdf6704	0.027270801
111	0x3c4def61	0.012569279
112	0xbca2dbab	-0.019880136
113	0xbcf12836	-0.02943812
114	0xbd1eb041	-0.038742308
115	0xbcd4ff4e	-0.026000645
116	0xbd0e37bc	-0.03472112
117	0x3cc69277	0.024239762
118	0x3cb60315	0.022218267
119	0x3cffe454	0.031236805
120	0x3b8d47df	0.004311546
121	0x3c4a5075	0.012348284
122	0x3c30fb74	0.010802139
123	0xbd1c2659	-0.03812251
124	0x3d0da897	0.034584608
125	0x3ced07ef	0.028934447
126	0xbcddc4c8	-0.027071372
127	0xbd077c1b	-0.03307734
128	0x3c09d007	0.008411414
129	0x3d154b04	0.036448494
130	0x3b2cb92e	0.0026355493
131	0xbcdba292	-0.026810918
132	0xbd1bed6d	-0.038068224
133	0x3d180890	0.03711754
134	0xbc3e9e97	-0.01163449
135	0x3b92b027	0.0044765654
136	0x3c74e67f	0.014947533
137	0x3d19d4c6	0.037556432
138	0xbbed7b00	-0.0072473288
139	0x3d1b3943	0.037896406
140	0xbc02196b	-0.00794063
141	0x3c16fd8f	0.0092157265
142	0x3d26ed66	0.040753745
143	0x3d07f6f7	0.03319451
144	0x3b6064d2	0.003423978
145	0x3c54e8cc	0.012994956
146	0xbb4d12b5	-0.0031291668
147	0xbb654ad2	-0.0034987223
148	0x3d16a6ff	0.036780354
149	0xbca25b79	-0.019819008
150	0x3ba29f15	0.0049628117
151	0x3ccdd002	0.0251236
152	0x3c6f05af	0.014588757
153	0x3cada551	0.021196993
154	0x3d0616d9	0.032736633
155	0xbc843be0	-0.016141832
156	0xbc961911	-0.0183225
157	0xbce305dc	-0.027712755
158	0x39ff0d86	0.00048647466
159	0x3cabc4b4	0.020967819
160	0x3cdc9a50	0.02692905
161	0xbc241b5c	-0.010016289
162	0xbcd02c11	-0.025411637
163	0x3c8ff567	0.017573072
164	0x3b276bed	0.0025546507
165	0x3bdd0c9c	0.006745888
166	0xbc62aa1d	-0.0138345035
167	0xbcf1c6e2	-0.02951378
168	0xbd047a2d	-0.03234308
169	0x3cf6fc38	0.030149564
170	0x3c5ab2df	0.01334831
171	0x3cbdeb34	0.023183443
172	0x3cb7c947	0.022434844
173	0x3b886512	0.004162439
174	0x3c589478	0.013218991
175	0x3ca60356	0.020265263
176	0xbc056596	-0.008141896
177	0xbd0187a0	-0.031623483
178	0xbc33b5c3	-0.010968628
179	0x3cd297a8	0.025707081
180	0x3d082a58	0.033243507
181	0x3d1012cd	0.03517418
182	0xbd03a022	-0.032135136
183	0xbcbf137c	-0.02332472
184	0xbc60630b	-0.013695489
185	0xbd15a94d	-0.03653841
186	0x3d16fc9b	0.036861997
187	0xbc39b39e	-0.011334328
188	0x3b144ba2	0.0022628088
189	0x3d076bb4	0.033061698
190	0xbc3432bd	-0.010998425
191	0xbcb7348b	-0.022363922
192	0xbd3674e4	-0.04454507
193	0x3d0be2d9	0.034151886
194	0xbc486f98	-0.012233637
195	0x3d1c87ce	0.03821545
196	0x3d2ee0c6	0.04269483
197	0x3c14be1b	0.009078528
198	0xbd0d1a56	-0.034448944
199	0x3cb2b7e5	0.021816203
200	0x3d2063a8	0.03915754
201	0xbc0ac063	-0.00846872
202	0x3cce76f6	0.02520321
203	0x3c8ca1e9	0.017167049
204	0x3cb12c2b	0.021627506
205	0xbd100f9a	-0.03517113
206	0xbc484400	-0.012223244
207	0xbcf84b8b	-0.03030946
208	0xbc91c601	-0.017794611
209	0xbcb3936a	-0.021920878
210	0x3d1c7221	0.03819478
211	0x3bcaaddc	0.0061852764
212	0xbc963b16	-0.018338721
213	0x3b819407	0.003954414
214	0x3ccdf35e	0.02514046
215	0xbc8cd2b8	-0.017190322
216	0xbd09e187	-0.033662345
217	0xbbbc71a8	-0.0057508536
218	0xbc9af024	-0.018913336
219	0xbbc2589a	-0.0059309723
220	0x3d3aaa85	0.045572776
221	0xbcdf989c	-0.02729445
222	0xbcb81ea3	-0.022475546
223	0xbd0da24f	-0.034578618
224	0xbb0399d9	-0.0020080714
225	0xbcec32e2	-0.028832857
226	0x3b8d4589	0.0043112678
227	0x3bd753ab	0.0065712533
228	0xbcd0b3d3	-0.025476372
229	0x3cf51527	0.029917313
230	0x3cdec8ae	0.0271953
231	0x3c92b974	0.017910697
232	0x3c8e1f4e	0.017348912
233	0xbc129445	-0.008946483
234	0x3d0c51e6	0.034257792
235	0xbca05e75	-0.01957629
236	0x3beec591	0.0072867353
237	0xbcd63342	-0.026147489
238	0x3d0aab6f	0.033854898
239	0x3c19d71f	0.009389668
240	0xbd0b9cb5	-0.034084994
241	0x3d18ce4f	0.037306126
242	0xbbc2e603	-0.0059478297
243	0x3ced268e	0.028949048
244	0x3cd9ca07	0.026585592
245	0x3cc322c2	0.023820285
246	0x3c3c8146	0.011505431
247	0xbcffce81	-0.031226398
248	0x3d368051	0.044555966
249	0xbce3653f	-0.027758239
250	0x3d3c0538	0.045903414
251	0x3b43b1b7	0.0029860565
252	0x3c619795	0.01376905
253	0xbc00631c	-0.0078361295
254	0x3b86d448	0.0041146614
255	0x3d1182f4	0.035525277

model.11.bias f4 [128]
0	0x3af31f4e	0.0018548758
1	0x3bd90cb9	0.006623831
2	0xbb1b267f	-0.0023674069
3	0xbd107a5c	-0.03527294
4	0x3cc39747	0.023875846
5	0x3c845208	0.016152397
6	0xbb93e9a7	-0.0045139375
7	0xbced6fb6	-0.028983932
8	0xbcc92aa0	-0.024556458
9	0xbb8795c5	-0.004137727
10	0x3c651696	0.013982436
11	0x3cb8b3b8	0.022546634
12	0x3cccd6f4	0.025004841
13	0x3b2292c2	0.0024806713
14	0xbb84b465	-0.004049825
15	0xbd064a25	-0.032785553
16	0xbc8b0b94	-0.016973294
17	0x3ceb1abf	0.028699277
18	0xbd02abd3	-0.031902146
19	0x3c4c26f2	0.012460457
20	0xbceeacee	-0.029135194
21	0xbd00e7e6	-0.031471156
22	0x3d0f74ef	0.035023626
23	0xbb78a5dc	-0.0037940657
24	0xbc1f8b97	-0.009737871
25	0x3c39545c	0.011311617
26	0x3d100880	0.035164356
27	0xbccad5c9	-0.024760144
28	0x3d247c00	0.040157318
29	0x3d4b501c	0.049636945
30	0x3d05bf97	0.032653417
31	0x3c23203d	0.009956417
32	0x3c8dc292	0.017304692
33	0x3cd09811	0.025463136
34	0xbd017c73	-0.031612825
35	0xbbee5ddd	-0.007274373
36	0x3b1a88d2	0.0023580086
37	0xbcf5df43	-0.030013686
38	0x3d1193be	0.03554129
39	0x3d22eaf1	0.03977484
40	0x3d2135cc	0.039357945
41	0xbc83485c	-0.016025715
42	0xbb72c198	-0.003704166
43	0xbd125cf9	-0.035733197
44	0x3cf2c666	0.02963562
45	0x3bba5a08	0.005687002
46	0x3b2632b9	0.0025359823
47	0xbce5b216	-0.02803902
48	0xbd0f5abd	-0.034998644
49	0x3b75d761	0.003751241
50	0x3d1186a0	0.03552878
51	0xbd0625dd	-0.032750953
52	0x3c322b0d	0.010874522
53	0xbcf66e62	-0.030081932
54	0x3c6dce60	0.014514536
55	0x3cb31c54	0.021864094
56	0x3d1925a9	0.03738943
57	0x3d037273	0.03209157
58	0xbb8d42d5	-0.0043109455
59	0x3d104dbb	0.03523038
60	0xbc99a487	-0.01875521
61	0xbce4cddb	-0.02793019
62	0xba77812b	-0.000944155
63	0xbd017a8c	-0.03161101
64	0xbad155cf	-0.0015971008
65	0x3ce5770e	0.028010871
66	0xbccaa9cd	-0.02473917
67	0xbc034ded	-0.008014184
68	0x3c96f877	0.018429024
69	0xbc69d36b	-0.014271597
70	0xba591d09	-0.00082822196
71	0x3cb982f7	0.022645457
72	0x3b4de23a	0.003141536
73	0x3d00334d	0.031298924
74	0x3ba65f7e	0.0050773015
75	0xbc53555c	-0.012898769
76	0x3cbda60a	0.023150463
77	0xbcca2af0	-0.024678677
78	0xbc8801ac	-0.01660236
79	0x3d17ea93	0.03708894
80	0x3c6c40e3	0.014419767
81	0x3d068eac	0.032850906
82	0x3b428bd3	0.0029685393
83	0xbba94d80	-0.0051667094
84	0xbc977a77	-0.018491013
85	0x3b7a925b	0.0038234207
86	0x3d276e40	0.040876627
87	0x3c9a9198	0.018868253
88	0xbbbcbcbe	-0.0057598045
89	0xbd049a89	-0.03237394
90	0xbc62e670	-0.013848886
91	0x3d01921d	0.031633485
92	0x3b37d2c1	0.0028049203
93	0xbc3e0d2b	-0.011599819
94	0xbc558c6a	-0.013033966
95	0x3d09e8cf	0.03366929
96	0x3bb12703	0.005406262
97	0x3cd4963f	0.02595055
98	0xbcda8a62	-0.026677314
99	0xbce879f0	-0.028378457
100	0xbcd0c0bb	-0.025482526
101	0xbcb54127	-0.022125794
102	0x3c8209bb	0.01587378
103	0xbd12cbf2	-0.03583903
104	0xbca858a3	-0.020550078
105	0x3cb00944	0.021488793
106	0xbc96bd76	-0.018400889
107	0x3cb47590	0.022028714
108	0xbc8bef01	-0.01708174
109	0xbc19ee70	-0.009395227
110	0x3bd50eb0	0.006501995
111	0xbcb833af	-0.022485582
112	0xbcb52d8e	-0.022116449
113	0x3d2734f6	0.04082199
114	0x3cc3776f	0.023860661
115	0xbc3c1c50	-0.01148136
116	0xbd0b9bfb	-0.0340843
117	0xbc44cb93	-0.0120114265
118	0xbd1177d0	-0.035514653
119	0xbd2be637	-0.041967597
120	0x3aa55f83	0.0012616966
121	0x3cb9442a	0.022615511
122	0xbd05c23e	-0.032655947
123	0x3cac1b36	0.021009069
124	0x3d04a3ed	0.032382894
125	0xbd1d22e1	-0.03836334
126	0xbd31b87e	-0.043388836
127	0x3cb92d22	0.022604529

model.14.weight f4 [128]
0	0x3f807623	1.0036052
1	0x3f80d791	1.0065786
2	0x3f809396	1.004504
3	0x3f7f40e5	0.99708396
4	0x3f80551d	1.0025975
5	0x3f809797	1.0046262
6	0x3f80bd4b	1.0057768
7	0x3f80a616	1.0050685
8	0x3f807a64	1.0037351
9	0x3f7ff7f6	0.99987733
10	0x3f81496a	1.0100529
11	0x3f81f69f	1.0153388
12	0x3f80c1b4	1.0059114
13	0x3f80a53b	1.0050424
14	0x3f805a94	1.0027642
15	0x3f807944	1.0037007
16	0x3f80e33f	1.006935
17	0x3f8176b1	1.0114347
18	0x3f818a2c	1.0120292
19	0x3f7f8250	0.99808216
20	0x3f80a1c2	1.0049365
21	0x3f8044a2	1.0020945
22	0x3f80bc6e	1.0057504
23	0x3f7edd57	0.9955649
24	0x3f807ad9	1.003749
25	0x3f7ff9b9	0.9999042
26	0x3f821fe7	1.0165986
27	0x3f8083cd	1.0040222
28	0x3f8019b5	1.0007845
29	0x3f817d84	1.0116429
30	0x3f804335	1.002051
31	0x3f80b6f8	1.0055838
32	0x3f817555	1.0113932
33	0x3f7f10f5	0.9963525
34	0x3f8048a8	1.0022173
35	0x3f81234a	1.0088894
36	0x3f80594f	1.0027255
37	0x3f80697d	1.0032192
38	0x3f7f76e9	0.9979082
39	0x3f805ede	1.0028951
40	0x3f800229	1.0000659
41	0x3f81e71f	1.0148658
42	0x3f80bc3e	1.0057447
43	0x3f8069fb	1.0032343
44	0x3f80055f	1.0001639
45	0x3f816d94	1.0111566
46	0x3f81765c	1.0114245
47	0x3f80bccc	1.0057616
48	0x3f801457	1.0006207
49	0x3f811886	1.0085609
50	0x3f8020b4	1.000998
51	0x3f7fcdd6	0.99923456
52	0x3f81043b	1.0079416
53	0x3f824ab0	1.0179043
54	0x3f810852	1.0080664
55	0x3f81d103	1.014191
56	0x3f80179d	1.0007206
57	0x3f8094e0	1.0045433
58	0x3f7feeb6	0.9997362
59	0x3f7fb832	0.99890435
60	0x3f8028ed	1.001249
61	0x3f804c71	1.0023328
62	0x3f801edf	1.0009421
63	0x3f8088ed	1.0041786
64	0x3f80e003	1.0068363
65	0x3f802b60	1.0013237
66	0x3f8080bf	1.003929
67	0x3f8142bc	1.0098491
68	0x3f7fc840	0.9991493
69	0x3f80f07e	1.0073392
70	0x3f80c06c	1.0058722
71	0x3f805665	1.0026366
72	0x3f80ae0b	1.0053114
73	0x3f803e14	1.0018945
74	0x3f80f608	1.0075083
75	0x3f81bba1	1.0135385
76	0x3f7fd643	0.9993631
77	0x3f7f9c08	0.9984746
78	0x3f80efae	1.0073144
79	0x3f7fc849	0.99914986
80	0x3f80684e	1.0031831
81	0x3f8014f1	1.0006391
82	0x3f7f55cf	0.9974031
83	0x3f80c4a3	1.0060009
84	0x3f80fecd	1.0077759
85	0x3f805861	1.0026971
86	0x3f801417	1.0006131
87	0x3f80d8ba	1.006614
88	0x3f80a6c9	1.0050899
89	0x3f815b32	1.0105956
90	0x3f80a2dd	1.0049702
91	0x3f80950c	1.0045485
92	0x3f8086fe	1.0041196
93	0x3f818643	1.0119098
94	0x3f81ce79	1.0141135
95	0x3f8101c5	1.0078665
96	0x3f810d73	1.0082229
97	0x3f80fc60	1.0077019
98	0x3f7eaaaf	0.9947919
99	0x3f8150bc	1.0102763
100	0x3f80b213	1.0054344
101	0x3f80bf83	1.0058445
102	0x3f8035e9	1.0016452
103	0x3f80fe5e	1.0077627
104	0x3f802d11	1.0013753
105	0x3f7f102b	0.99634045
106	0x3f81424b	1.0098356
107	0x3f80ab31	1.0052243
108	0x3f805b2f	1.0027827
109	0x3f7fe6ef	0.9996175
110	0x3f80013a	1.0000374
111	0x3f80c056	1.0058696
112	0x3f804bc1	1.0023118
113	0x3f8164c8	1.0108881
114	0x3f8094ae	1.0045373
115	0x3f81682b	1.0109915
116	0x3f8038ef	1.0017375
117	0x3f80c91b	1.0061373
118	0x3f80da7b	1.0066675
119	0x3f8086db	1.0041155
120	0x3f8035f3	1.0016464
121	0x3f805184	1.0024877
122	0x3f8036c2	1.0016711
123	0x3f8062be	1.0030134
124	0x3f809395	1.0045038
125	0x3f812747	1.0090111
126	0x3f81017e	1.007858
127	0x3f812722	1.0090067
